<?xml version="1.0" ?>
<net name="tf2onnx" version="11">
	<layers>
		<layer id="0" name="input_1" type="Parameter" version="opset1">
			<data shape="1,3,224,224" element_type="f32"/>
			<rt_info>
				<attribute name="fused_names" version="0" value="input_1"/>
			</rt_info>
			<output>
				<port id="0" precision="FP32" names="input_1">
					<dim>1</dim>
					<dim>3</dim>
					<dim>224</dim>
					<dim>224</dim>
				</port>
			</output>
		</layer>
		<layer id="1" name="Conv2D/filter:0" type="Const" version="opset1">
			<data element_type="f32" shape="24, 3, 3, 3" offset="0" size="2592"/>
			<rt_info>
				<attribute name="fused_names" version="0" value="Conv2D/filter:0"/>
			</rt_info>
			<output>
				<port id="0" precision="FP32" names="Conv2D/filter:0">
					<dim>24</dim>
					<dim>3</dim>
					<dim>3</dim>
					<dim>3</dim>
				</port>
			</output>
		</layer>
		<layer id="2" name="Conv__358/WithoutBiases" type="Convolution" version="opset1">
			<data strides="2, 2" dilations="1, 1" pads_begin="1, 1" pads_end="1, 1" auto_pad="explicit"/>
			<rt_info>
				<attribute name="fused_names" version="0" value="Conv__358/WithoutBiases"/>
			</rt_info>
			<input>
				<port id="0" precision="FP32">
					<dim>1</dim>
					<dim>3</dim>
					<dim>224</dim>
					<dim>224</dim>
				</port>
				<port id="1" precision="FP32">
					<dim>24</dim>
					<dim>3</dim>
					<dim>3</dim>
					<dim>3</dim>
				</port>
			</input>
			<output>
				<port id="2" precision="FP32">
					<dim>1</dim>
					<dim>24</dim>
					<dim>112</dim>
					<dim>112</dim>
				</port>
			</output>
		</layer>
		<layer id="3" name="Reshape_167" type="Const" version="opset1">
			<data element_type="f32" shape="1, 24, 1, 1" offset="2592" size="96"/>
			<output>
				<port id="0" precision="FP32">
					<dim>1</dim>
					<dim>24</dim>
					<dim>1</dim>
					<dim>1</dim>
				</port>
			</output>
		</layer>
		<layer id="4" name="Conv__358" type="Add" version="opset1">
			<data auto_broadcast="numpy"/>
			<rt_info>
				<attribute name="fused_names" version="0" value="Concat_166, Conv__358, Reshape_167"/>
			</rt_info>
			<input>
				<port id="0" precision="FP32">
					<dim>1</dim>
					<dim>24</dim>
					<dim>112</dim>
					<dim>112</dim>
				</port>
				<port id="1" precision="FP32">
					<dim>1</dim>
					<dim>24</dim>
					<dim>1</dim>
					<dim>1</dim>
				</port>
			</input>
			<output>
				<port id="2" precision="FP32" names="Conv__358:0">
					<dim>1</dim>
					<dim>24</dim>
					<dim>112</dim>
					<dim>112</dim>
				</port>
			</output>
		</layer>
		<layer id="5" name="model_1/model/re_lu/Relu6_model_1/model/batch_normalization/FusedBatchNormV3_model_1/model/batch_normalization_1/FusedBatchNormV3_model_1/model/depthwise_conv2d/depthwise_model_1/model/regressor_person_16_NO_PRUNING/Conv2D_model_1/model/conv2d/Conv2D" type="Clamp" version="opset1">
			<data min="0" max="6"/>
			<rt_info>
				<attribute name="fused_names" version="0" value="Maximum_195, model_1/model/re_lu/Relu6_model_1/model/batch_normalization/FusedBatchNormV3_model_1/model/batch_normalization_1/FusedBatchNormV3_model_1/model/depthwise_conv2d/depthwise_model_1/model/regressor_person_16_NO_PRUNING/Conv2D_model_1/model/conv2d/Conv2D"/>
			</rt_info>
			<input>
				<port id="0" precision="FP32">
					<dim>1</dim>
					<dim>24</dim>
					<dim>112</dim>
					<dim>112</dim>
				</port>
			</input>
			<output>
				<port id="1" precision="FP32" names="model_1/model/re_lu/Relu6_model_1/model/batch_normalization/FusedBatchNormV3_model_1/model/batch_normalization_1/FusedBatchNormV3_model_1/model/depthwise_conv2d/depthwise_model_1/model/regressor_person_16_NO_PRUNING/Conv2D_model_1/model/conv2d/Conv2D:0">
					<dim>1</dim>
					<dim>24</dim>
					<dim>112</dim>
					<dim>112</dim>
				</port>
			</output>
		</layer>
		<layer id="6" name="Reshape_204" type="Const" version="opset1">
			<data element_type="f32" shape="24, 1, 1, 3, 3" offset="2688" size="864"/>
			<output>
				<port id="0" precision="FP32">
					<dim>24</dim>
					<dim>1</dim>
					<dim>1</dim>
					<dim>3</dim>
					<dim>3</dim>
				</port>
			</output>
		</layer>
		<layer id="7" name="Conv__359/WithoutBiases" type="GroupConvolution" version="opset1">
			<data strides="1, 1" pads_begin="1, 1" pads_end="1, 1" dilations="1, 1" auto_pad="explicit"/>
			<rt_info>
				<attribute name="fused_names" version="0" value="Conv__359/WithoutBiases, Reshape_204"/>
			</rt_info>
			<input>
				<port id="0" precision="FP32">
					<dim>1</dim>
					<dim>24</dim>
					<dim>112</dim>
					<dim>112</dim>
				</port>
				<port id="1" precision="FP32">
					<dim>24</dim>
					<dim>1</dim>
					<dim>1</dim>
					<dim>3</dim>
					<dim>3</dim>
				</port>
			</input>
			<output>
				<port id="2" precision="FP32">
					<dim>1</dim>
					<dim>24</dim>
					<dim>112</dim>
					<dim>112</dim>
				</port>
			</output>
		</layer>
		<layer id="8" name="Reshape_290" type="Const" version="opset1">
			<data element_type="f32" shape="1, 24, 1, 1" offset="3552" size="96"/>
			<output>
				<port id="0" precision="FP32">
					<dim>1</dim>
					<dim>24</dim>
					<dim>1</dim>
					<dim>1</dim>
				</port>
			</output>
		</layer>
		<layer id="9" name="Conv__359" type="Add" version="opset1">
			<data auto_broadcast="numpy"/>
			<rt_info>
				<attribute name="fused_names" version="0" value="Concat_289, Conv__359, Reshape_290"/>
			</rt_info>
			<input>
				<port id="0" precision="FP32">
					<dim>1</dim>
					<dim>24</dim>
					<dim>112</dim>
					<dim>112</dim>
				</port>
				<port id="1" precision="FP32">
					<dim>1</dim>
					<dim>24</dim>
					<dim>1</dim>
					<dim>1</dim>
				</port>
			</input>
			<output>
				<port id="2" precision="FP32" names="Conv__359:0">
					<dim>1</dim>
					<dim>24</dim>
					<dim>112</dim>
					<dim>112</dim>
				</port>
			</output>
		</layer>
		<layer id="10" name="model_1/model/re_lu_1/Relu6_model_1/model/batch_normalization_1/FusedBatchNormV3_model_1/model/depthwise_conv2d/depthwise_model_1/model/regressor_person_16_NO_PRUNING/Conv2D" type="Clamp" version="opset1">
			<data min="0" max="6"/>
			<rt_info>
				<attribute name="fused_names" version="0" value="Maximum_318, model_1/model/re_lu_1/Relu6_model_1/model/batch_normalization_1/FusedBatchNormV3_model_1/model/depthwise_conv2d/depthwise_model_1/model/regressor_person_16_NO_PRUNING/Conv2D"/>
			</rt_info>
			<input>
				<port id="0" precision="FP32">
					<dim>1</dim>
					<dim>24</dim>
					<dim>112</dim>
					<dim>112</dim>
				</port>
			</input>
			<output>
				<port id="1" precision="FP32" names="model_1/model/re_lu_1/Relu6_model_1/model/batch_normalization_1/FusedBatchNormV3_model_1/model/depthwise_conv2d/depthwise_model_1/model/regressor_person_16_NO_PRUNING/Conv2D:0">
					<dim>1</dim>
					<dim>24</dim>
					<dim>112</dim>
					<dim>112</dim>
				</port>
			</output>
		</layer>
		<layer id="11" name="Conv2D_1/filter:0" type="Const" version="opset1">
			<data element_type="f32" shape="16, 24, 1, 1" offset="3648" size="1536"/>
			<rt_info>
				<attribute name="fused_names" version="0" value="Conv2D_1/filter:0"/>
			</rt_info>
			<output>
				<port id="0" precision="FP32" names="Conv2D_1/filter:0">
					<dim>16</dim>
					<dim>24</dim>
					<dim>1</dim>
					<dim>1</dim>
				</port>
			</output>
		</layer>
		<layer id="12" name="Conv__360/WithoutBiases" type="Convolution" version="opset1">
			<data strides="1, 1" dilations="1, 1" pads_begin="0, 0" pads_end="0, 0" auto_pad="explicit"/>
			<rt_info>
				<attribute name="fused_names" version="0" value="Conv__360/WithoutBiases"/>
			</rt_info>
			<input>
				<port id="0" precision="FP32">
					<dim>1</dim>
					<dim>24</dim>
					<dim>112</dim>
					<dim>112</dim>
				</port>
				<port id="1" precision="FP32">
					<dim>16</dim>
					<dim>24</dim>
					<dim>1</dim>
					<dim>1</dim>
				</port>
			</input>
			<output>
				<port id="2" precision="FP32">
					<dim>1</dim>
					<dim>16</dim>
					<dim>112</dim>
					<dim>112</dim>
				</port>
			</output>
		</layer>
		<layer id="13" name="Reshape_340" type="Const" version="opset1">
			<data element_type="f32" shape="1, 16, 1, 1" offset="5184" size="64"/>
			<output>
				<port id="0" precision="FP32">
					<dim>1</dim>
					<dim>16</dim>
					<dim>1</dim>
					<dim>1</dim>
				</port>
			</output>
		</layer>
		<layer id="14" name="Conv__360" type="Add" version="opset1">
			<data auto_broadcast="numpy"/>
			<rt_info>
				<attribute name="fused_names" version="0" value="Concat_339, Conv__360, Reshape_340"/>
			</rt_info>
			<input>
				<port id="0" precision="FP32">
					<dim>1</dim>
					<dim>16</dim>
					<dim>112</dim>
					<dim>112</dim>
				</port>
				<port id="1" precision="FP32">
					<dim>1</dim>
					<dim>16</dim>
					<dim>1</dim>
					<dim>1</dim>
				</port>
			</input>
			<output>
				<port id="2" precision="FP32" names="Conv__360:0">
					<dim>1</dim>
					<dim>16</dim>
					<dim>112</dim>
					<dim>112</dim>
				</port>
			</output>
		</layer>
		<layer id="15" name="Conv2D_2/filter:0" type="Const" version="opset1">
			<data element_type="f32" shape="64, 16, 1, 1" offset="5248" size="4096"/>
			<rt_info>
				<attribute name="fused_names" version="0" value="Conv2D_2/filter:0"/>
			</rt_info>
			<output>
				<port id="0" precision="FP32" names="Conv2D_2/filter:0">
					<dim>64</dim>
					<dim>16</dim>
					<dim>1</dim>
					<dim>1</dim>
				</port>
			</output>
		</layer>
		<layer id="16" name="Conv__361/WithoutBiases" type="Convolution" version="opset1">
			<data strides="1, 1" dilations="1, 1" pads_begin="0, 0" pads_end="0, 0" auto_pad="explicit"/>
			<rt_info>
				<attribute name="fused_names" version="0" value="Conv__361/WithoutBiases"/>
			</rt_info>
			<input>
				<port id="0" precision="FP32">
					<dim>1</dim>
					<dim>16</dim>
					<dim>112</dim>
					<dim>112</dim>
				</port>
				<port id="1" precision="FP32">
					<dim>64</dim>
					<dim>16</dim>
					<dim>1</dim>
					<dim>1</dim>
				</port>
			</input>
			<output>
				<port id="2" precision="FP32">
					<dim>1</dim>
					<dim>64</dim>
					<dim>112</dim>
					<dim>112</dim>
				</port>
			</output>
		</layer>
		<layer id="17" name="Reshape_388" type="Const" version="opset1">
			<data element_type="f32" shape="1, 64, 1, 1" offset="9344" size="256"/>
			<output>
				<port id="0" precision="FP32">
					<dim>1</dim>
					<dim>64</dim>
					<dim>1</dim>
					<dim>1</dim>
				</port>
			</output>
		</layer>
		<layer id="18" name="Conv__361" type="Add" version="opset1">
			<data auto_broadcast="numpy"/>
			<rt_info>
				<attribute name="fused_names" version="0" value="Concat_387, Conv__361, Reshape_388"/>
			</rt_info>
			<input>
				<port id="0" precision="FP32">
					<dim>1</dim>
					<dim>64</dim>
					<dim>112</dim>
					<dim>112</dim>
				</port>
				<port id="1" precision="FP32">
					<dim>1</dim>
					<dim>64</dim>
					<dim>1</dim>
					<dim>1</dim>
				</port>
			</input>
			<output>
				<port id="2" precision="FP32" names="Conv__361:0">
					<dim>1</dim>
					<dim>64</dim>
					<dim>112</dim>
					<dim>112</dim>
				</port>
			</output>
		</layer>
		<layer id="19" name="model_1/model/re_lu_2/Relu6_model_1/model/batch_normalization_3/FusedBatchNormV3_model_1/model/batch_normalization_4/FusedBatchNormV3_model_1/model/depthwise_conv2d_1/depthwise_model_1/model/conv2d_2/Conv2D" type="Clamp" version="opset1">
			<data min="0" max="6"/>
			<rt_info>
				<attribute name="fused_names" version="0" value="Maximum_416, model_1/model/re_lu_2/Relu6_model_1/model/batch_normalization_3/FusedBatchNormV3_model_1/model/batch_normalization_4/FusedBatchNormV3_model_1/model/depthwise_conv2d_1/depthwise_model_1/model/conv2d_2/Conv2D"/>
			</rt_info>
			<input>
				<port id="0" precision="FP32">
					<dim>1</dim>
					<dim>64</dim>
					<dim>112</dim>
					<dim>112</dim>
				</port>
			</input>
			<output>
				<port id="1" precision="FP32" names="model_1/model/re_lu_2/Relu6_model_1/model/batch_normalization_3/FusedBatchNormV3_model_1/model/batch_normalization_4/FusedBatchNormV3_model_1/model/depthwise_conv2d_1/depthwise_model_1/model/conv2d_2/Conv2D:0">
					<dim>1</dim>
					<dim>64</dim>
					<dim>112</dim>
					<dim>112</dim>
				</port>
			</output>
		</layer>
		<layer id="20" name="Reshape_425" type="Const" version="opset1">
			<data element_type="f32" shape="64, 1, 1, 3, 3" offset="9600" size="2304"/>
			<output>
				<port id="0" precision="FP32">
					<dim>64</dim>
					<dim>1</dim>
					<dim>1</dim>
					<dim>3</dim>
					<dim>3</dim>
				</port>
			</output>
		</layer>
		<layer id="21" name="Conv__362/WithoutBiases" type="GroupConvolution" version="opset1">
			<data strides="2, 2" pads_begin="1, 1" pads_end="1, 1" dilations="1, 1" auto_pad="explicit"/>
			<rt_info>
				<attribute name="fused_names" version="0" value="Conv__362/WithoutBiases, Reshape_425"/>
			</rt_info>
			<input>
				<port id="0" precision="FP32">
					<dim>1</dim>
					<dim>64</dim>
					<dim>112</dim>
					<dim>112</dim>
				</port>
				<port id="1" precision="FP32">
					<dim>64</dim>
					<dim>1</dim>
					<dim>1</dim>
					<dim>3</dim>
					<dim>3</dim>
				</port>
			</input>
			<output>
				<port id="2" precision="FP32">
					<dim>1</dim>
					<dim>64</dim>
					<dim>56</dim>
					<dim>56</dim>
				</port>
			</output>
		</layer>
		<layer id="22" name="Reshape_511" type="Const" version="opset1">
			<data element_type="f32" shape="1, 64, 1, 1" offset="11904" size="256"/>
			<output>
				<port id="0" precision="FP32">
					<dim>1</dim>
					<dim>64</dim>
					<dim>1</dim>
					<dim>1</dim>
				</port>
			</output>
		</layer>
		<layer id="23" name="Conv__362" type="Add" version="opset1">
			<data auto_broadcast="numpy"/>
			<rt_info>
				<attribute name="fused_names" version="0" value="Concat_510, Conv__362, Reshape_511"/>
			</rt_info>
			<input>
				<port id="0" precision="FP32">
					<dim>1</dim>
					<dim>64</dim>
					<dim>56</dim>
					<dim>56</dim>
				</port>
				<port id="1" precision="FP32">
					<dim>1</dim>
					<dim>64</dim>
					<dim>1</dim>
					<dim>1</dim>
				</port>
			</input>
			<output>
				<port id="2" precision="FP32" names="Conv__362:0">
					<dim>1</dim>
					<dim>64</dim>
					<dim>56</dim>
					<dim>56</dim>
				</port>
			</output>
		</layer>
		<layer id="24" name="model_1/model/re_lu_3/Relu6_model_1/model/batch_normalization_4/FusedBatchNormV3_model_1/model/depthwise_conv2d_1/depthwise" type="Clamp" version="opset1">
			<data min="0" max="6"/>
			<rt_info>
				<attribute name="fused_names" version="0" value="Maximum_539, model_1/model/re_lu_3/Relu6_model_1/model/batch_normalization_4/FusedBatchNormV3_model_1/model/depthwise_conv2d_1/depthwise"/>
			</rt_info>
			<input>
				<port id="0" precision="FP32">
					<dim>1</dim>
					<dim>64</dim>
					<dim>56</dim>
					<dim>56</dim>
				</port>
			</input>
			<output>
				<port id="1" precision="FP32" names="model_1/model/re_lu_3/Relu6_model_1/model/batch_normalization_4/FusedBatchNormV3_model_1/model/depthwise_conv2d_1/depthwise:0">
					<dim>1</dim>
					<dim>64</dim>
					<dim>56</dim>
					<dim>56</dim>
				</port>
			</output>
		</layer>
		<layer id="25" name="Conv2D_3/filter:0" type="Const" version="opset1">
			<data element_type="f32" shape="24, 64, 1, 1" offset="12160" size="6144"/>
			<rt_info>
				<attribute name="fused_names" version="0" value="Conv2D_3/filter:0"/>
			</rt_info>
			<output>
				<port id="0" precision="FP32" names="Conv2D_3/filter:0">
					<dim>24</dim>
					<dim>64</dim>
					<dim>1</dim>
					<dim>1</dim>
				</port>
			</output>
		</layer>
		<layer id="26" name="Conv__363/WithoutBiases" type="Convolution" version="opset1">
			<data strides="1, 1" dilations="1, 1" pads_begin="0, 0" pads_end="0, 0" auto_pad="explicit"/>
			<rt_info>
				<attribute name="fused_names" version="0" value="Conv__363/WithoutBiases"/>
			</rt_info>
			<input>
				<port id="0" precision="FP32">
					<dim>1</dim>
					<dim>64</dim>
					<dim>56</dim>
					<dim>56</dim>
				</port>
				<port id="1" precision="FP32">
					<dim>24</dim>
					<dim>64</dim>
					<dim>1</dim>
					<dim>1</dim>
				</port>
			</input>
			<output>
				<port id="2" precision="FP32">
					<dim>1</dim>
					<dim>24</dim>
					<dim>56</dim>
					<dim>56</dim>
				</port>
			</output>
		</layer>
		<layer id="27" name="Reshape_561" type="Const" version="opset1">
			<data element_type="f32" shape="1, 24, 1, 1" offset="18304" size="96"/>
			<output>
				<port id="0" precision="FP32">
					<dim>1</dim>
					<dim>24</dim>
					<dim>1</dim>
					<dim>1</dim>
				</port>
			</output>
		</layer>
		<layer id="28" name="Conv__363" type="Add" version="opset1">
			<data auto_broadcast="numpy"/>
			<rt_info>
				<attribute name="fused_names" version="0" value="Concat_560, Conv__363, Reshape_561"/>
			</rt_info>
			<input>
				<port id="0" precision="FP32">
					<dim>1</dim>
					<dim>24</dim>
					<dim>56</dim>
					<dim>56</dim>
				</port>
				<port id="1" precision="FP32">
					<dim>1</dim>
					<dim>24</dim>
					<dim>1</dim>
					<dim>1</dim>
				</port>
			</input>
			<output>
				<port id="2" precision="FP32" names="Conv__363:0">
					<dim>1</dim>
					<dim>24</dim>
					<dim>56</dim>
					<dim>56</dim>
				</port>
			</output>
		</layer>
		<layer id="29" name="Conv2D_4/filter:0" type="Const" version="opset1">
			<data element_type="f32" shape="144, 24, 1, 1" offset="18400" size="13824"/>
			<rt_info>
				<attribute name="fused_names" version="0" value="Conv2D_4/filter:0"/>
			</rt_info>
			<output>
				<port id="0" precision="FP32" names="Conv2D_4/filter:0">
					<dim>144</dim>
					<dim>24</dim>
					<dim>1</dim>
					<dim>1</dim>
				</port>
			</output>
		</layer>
		<layer id="30" name="Conv__366/WithoutBiases" type="Convolution" version="opset1">
			<data strides="1, 1" dilations="1, 1" pads_begin="0, 0" pads_end="0, 0" auto_pad="explicit"/>
			<rt_info>
				<attribute name="fused_names" version="0" value="Conv__366/WithoutBiases"/>
			</rt_info>
			<input>
				<port id="0" precision="FP32">
					<dim>1</dim>
					<dim>24</dim>
					<dim>56</dim>
					<dim>56</dim>
				</port>
				<port id="1" precision="FP32">
					<dim>144</dim>
					<dim>24</dim>
					<dim>1</dim>
					<dim>1</dim>
				</port>
			</input>
			<output>
				<port id="2" precision="FP32">
					<dim>1</dim>
					<dim>144</dim>
					<dim>56</dim>
					<dim>56</dim>
				</port>
			</output>
		</layer>
		<layer id="31" name="Reshape_609" type="Const" version="opset1">
			<data element_type="f32" shape="1, 144, 1, 1" offset="32224" size="576"/>
			<output>
				<port id="0" precision="FP32">
					<dim>1</dim>
					<dim>144</dim>
					<dim>1</dim>
					<dim>1</dim>
				</port>
			</output>
		</layer>
		<layer id="32" name="Conv__366" type="Add" version="opset1">
			<data auto_broadcast="numpy"/>
			<rt_info>
				<attribute name="fused_names" version="0" value="Concat_608, Conv__366, Reshape_609"/>
			</rt_info>
			<input>
				<port id="0" precision="FP32">
					<dim>1</dim>
					<dim>144</dim>
					<dim>56</dim>
					<dim>56</dim>
				</port>
				<port id="1" precision="FP32">
					<dim>1</dim>
					<dim>144</dim>
					<dim>1</dim>
					<dim>1</dim>
				</port>
			</input>
			<output>
				<port id="2" precision="FP32" names="Conv__366:0">
					<dim>1</dim>
					<dim>144</dim>
					<dim>56</dim>
					<dim>56</dim>
				</port>
			</output>
		</layer>
		<layer id="33" name="model_1/model/re_lu_4/Relu6_model_1/model/batch_normalization_6/FusedBatchNormV3_model_1/model/batch_normalization_10/FusedBatchNormV3_model_1/model/depthwise_conv2d_3/depthwise_model_1/model/conv2d_4/Conv2D" type="Clamp" version="opset1">
			<data min="0" max="6"/>
			<rt_info>
				<attribute name="fused_names" version="0" value="Maximum_637, model_1/model/re_lu_4/Relu6_model_1/model/batch_normalization_6/FusedBatchNormV3_model_1/model/batch_normalization_10/FusedBatchNormV3_model_1/model/depthwise_conv2d_3/depthwise_model_1/model/conv2d_4/Conv2D"/>
			</rt_info>
			<input>
				<port id="0" precision="FP32">
					<dim>1</dim>
					<dim>144</dim>
					<dim>56</dim>
					<dim>56</dim>
				</port>
			</input>
			<output>
				<port id="1" precision="FP32" names="model_1/model/re_lu_4/Relu6_model_1/model/batch_normalization_6/FusedBatchNormV3_model_1/model/batch_normalization_10/FusedBatchNormV3_model_1/model/depthwise_conv2d_3/depthwise_model_1/model/conv2d_4/Conv2D:0">
					<dim>1</dim>
					<dim>144</dim>
					<dim>56</dim>
					<dim>56</dim>
				</port>
			</output>
		</layer>
		<layer id="34" name="Reshape_646" type="Const" version="opset1">
			<data element_type="f32" shape="144, 1, 1, 3, 3" offset="32800" size="5184"/>
			<output>
				<port id="0" precision="FP32">
					<dim>144</dim>
					<dim>1</dim>
					<dim>1</dim>
					<dim>3</dim>
					<dim>3</dim>
				</port>
			</output>
		</layer>
		<layer id="35" name="Conv__367/WithoutBiases" type="GroupConvolution" version="opset1">
			<data strides="1, 1" pads_begin="1, 1" pads_end="1, 1" dilations="1, 1" auto_pad="explicit"/>
			<rt_info>
				<attribute name="fused_names" version="0" value="Conv__367/WithoutBiases, Reshape_646"/>
			</rt_info>
			<input>
				<port id="0" precision="FP32">
					<dim>1</dim>
					<dim>144</dim>
					<dim>56</dim>
					<dim>56</dim>
				</port>
				<port id="1" precision="FP32">
					<dim>144</dim>
					<dim>1</dim>
					<dim>1</dim>
					<dim>3</dim>
					<dim>3</dim>
				</port>
			</input>
			<output>
				<port id="2" precision="FP32">
					<dim>1</dim>
					<dim>144</dim>
					<dim>56</dim>
					<dim>56</dim>
				</port>
			</output>
		</layer>
		<layer id="36" name="Reshape_732" type="Const" version="opset1">
			<data element_type="f32" shape="1, 144, 1, 1" offset="37984" size="576"/>
			<output>
				<port id="0" precision="FP32">
					<dim>1</dim>
					<dim>144</dim>
					<dim>1</dim>
					<dim>1</dim>
				</port>
			</output>
		</layer>
		<layer id="37" name="Conv__367" type="Add" version="opset1">
			<data auto_broadcast="numpy"/>
			<rt_info>
				<attribute name="fused_names" version="0" value="Concat_731, Conv__367, Reshape_732"/>
			</rt_info>
			<input>
				<port id="0" precision="FP32">
					<dim>1</dim>
					<dim>144</dim>
					<dim>56</dim>
					<dim>56</dim>
				</port>
				<port id="1" precision="FP32">
					<dim>1</dim>
					<dim>144</dim>
					<dim>1</dim>
					<dim>1</dim>
				</port>
			</input>
			<output>
				<port id="2" precision="FP32" names="Conv__367:0">
					<dim>1</dim>
					<dim>144</dim>
					<dim>56</dim>
					<dim>56</dim>
				</port>
			</output>
		</layer>
		<layer id="38" name="model_1/model/re_lu_5/Relu6_model_1/model/batch_normalization_7/FusedBatchNormV3_model_1/model/batch_normalization_10/FusedBatchNormV3_model_1/model/depthwise_conv2d_3/depthwise_model_1/model/depthwise_conv2d_2/depthwise" type="Clamp" version="opset1">
			<data min="0" max="6"/>
			<rt_info>
				<attribute name="fused_names" version="0" value="Maximum_760, model_1/model/re_lu_5/Relu6_model_1/model/batch_normalization_7/FusedBatchNormV3_model_1/model/batch_normalization_10/FusedBatchNormV3_model_1/model/depthwise_conv2d_3/depthwise_model_1/model/depthwise_conv2d_2/depthwise"/>
			</rt_info>
			<input>
				<port id="0" precision="FP32">
					<dim>1</dim>
					<dim>144</dim>
					<dim>56</dim>
					<dim>56</dim>
				</port>
			</input>
			<output>
				<port id="1" precision="FP32" names="model_1/model/re_lu_5/Relu6_model_1/model/batch_normalization_7/FusedBatchNormV3_model_1/model/batch_normalization_10/FusedBatchNormV3_model_1/model/depthwise_conv2d_3/depthwise_model_1/model/depthwise_conv2d_2/depthwise:0">
					<dim>1</dim>
					<dim>144</dim>
					<dim>56</dim>
					<dim>56</dim>
				</port>
			</output>
		</layer>
		<layer id="39" name="Conv2D_5/filter:0" type="Const" version="opset1">
			<data element_type="f32" shape="24, 144, 1, 1" offset="38560" size="13824"/>
			<rt_info>
				<attribute name="fused_names" version="0" value="Conv2D_5/filter:0"/>
			</rt_info>
			<output>
				<port id="0" precision="FP32" names="Conv2D_5/filter:0">
					<dim>24</dim>
					<dim>144</dim>
					<dim>1</dim>
					<dim>1</dim>
				</port>
			</output>
		</layer>
		<layer id="40" name="Conv__368/WithoutBiases" type="Convolution" version="opset1">
			<data strides="1, 1" dilations="1, 1" pads_begin="0, 0" pads_end="0, 0" auto_pad="explicit"/>
			<rt_info>
				<attribute name="fused_names" version="0" value="Conv__368/WithoutBiases"/>
			</rt_info>
			<input>
				<port id="0" precision="FP32">
					<dim>1</dim>
					<dim>144</dim>
					<dim>56</dim>
					<dim>56</dim>
				</port>
				<port id="1" precision="FP32">
					<dim>24</dim>
					<dim>144</dim>
					<dim>1</dim>
					<dim>1</dim>
				</port>
			</input>
			<output>
				<port id="2" precision="FP32">
					<dim>1</dim>
					<dim>24</dim>
					<dim>56</dim>
					<dim>56</dim>
				</port>
			</output>
		</layer>
		<layer id="41" name="Reshape_782" type="Const" version="opset1">
			<data element_type="f32" shape="1, 24, 1, 1" offset="52384" size="96"/>
			<output>
				<port id="0" precision="FP32">
					<dim>1</dim>
					<dim>24</dim>
					<dim>1</dim>
					<dim>1</dim>
				</port>
			</output>
		</layer>
		<layer id="42" name="Conv__368" type="Add" version="opset1">
			<data auto_broadcast="numpy"/>
			<rt_info>
				<attribute name="fused_names" version="0" value="Concat_781, Conv__368, Reshape_782"/>
			</rt_info>
			<input>
				<port id="0" precision="FP32">
					<dim>1</dim>
					<dim>24</dim>
					<dim>56</dim>
					<dim>56</dim>
				</port>
				<port id="1" precision="FP32">
					<dim>1</dim>
					<dim>24</dim>
					<dim>1</dim>
					<dim>1</dim>
				</port>
			</input>
			<output>
				<port id="2" precision="FP32" names="Conv__368:0">
					<dim>1</dim>
					<dim>24</dim>
					<dim>56</dim>
					<dim>56</dim>
				</port>
			</output>
		</layer>
		<layer id="43" name="model_1/model/add/add" type="Add" version="opset1">
			<data auto_broadcast="numpy"/>
			<rt_info>
				<attribute name="fused_names" version="0" value="model_1/model/add/add"/>
			</rt_info>
			<input>
				<port id="0" precision="FP32">
					<dim>1</dim>
					<dim>24</dim>
					<dim>56</dim>
					<dim>56</dim>
				</port>
				<port id="1" precision="FP32">
					<dim>1</dim>
					<dim>24</dim>
					<dim>56</dim>
					<dim>56</dim>
				</port>
			</input>
			<output>
				<port id="2" precision="FP32" names="model_1/model/add/add:0">
					<dim>1</dim>
					<dim>24</dim>
					<dim>56</dim>
					<dim>56</dim>
				</port>
			</output>
		</layer>
		<layer id="44" name="Conv2D_6/filter:0" type="Const" version="opset1">
			<data element_type="f32" shape="144, 24, 1, 1" offset="52480" size="13824"/>
			<rt_info>
				<attribute name="fused_names" version="0" value="Conv2D_6/filter:0"/>
			</rt_info>
			<output>
				<port id="0" precision="FP32" names="Conv2D_6/filter:0">
					<dim>144</dim>
					<dim>24</dim>
					<dim>1</dim>
					<dim>1</dim>
				</port>
			</output>
		</layer>
		<layer id="45" name="Conv__369/WithoutBiases" type="Convolution" version="opset1">
			<data strides="1, 1" dilations="1, 1" pads_begin="0, 0" pads_end="0, 0" auto_pad="explicit"/>
			<rt_info>
				<attribute name="fused_names" version="0" value="Conv__369/WithoutBiases"/>
			</rt_info>
			<input>
				<port id="0" precision="FP32">
					<dim>1</dim>
					<dim>24</dim>
					<dim>56</dim>
					<dim>56</dim>
				</port>
				<port id="1" precision="FP32">
					<dim>144</dim>
					<dim>24</dim>
					<dim>1</dim>
					<dim>1</dim>
				</port>
			</input>
			<output>
				<port id="2" precision="FP32">
					<dim>1</dim>
					<dim>144</dim>
					<dim>56</dim>
					<dim>56</dim>
				</port>
			</output>
		</layer>
		<layer id="46" name="Reshape_831" type="Const" version="opset1">
			<data element_type="f32" shape="1, 144, 1, 1" offset="66304" size="576"/>
			<output>
				<port id="0" precision="FP32">
					<dim>1</dim>
					<dim>144</dim>
					<dim>1</dim>
					<dim>1</dim>
				</port>
			</output>
		</layer>
		<layer id="47" name="Conv__369" type="Add" version="opset1">
			<data auto_broadcast="numpy"/>
			<rt_info>
				<attribute name="fused_names" version="0" value="Concat_830, Conv__369, Reshape_831"/>
			</rt_info>
			<input>
				<port id="0" precision="FP32">
					<dim>1</dim>
					<dim>144</dim>
					<dim>56</dim>
					<dim>56</dim>
				</port>
				<port id="1" precision="FP32">
					<dim>1</dim>
					<dim>144</dim>
					<dim>1</dim>
					<dim>1</dim>
				</port>
			</input>
			<output>
				<port id="2" precision="FP32" names="Conv__369:0">
					<dim>1</dim>
					<dim>144</dim>
					<dim>56</dim>
					<dim>56</dim>
				</port>
			</output>
		</layer>
		<layer id="48" name="model_1/model/re_lu_6/Relu6_model_1/model/batch_normalization_9/FusedBatchNormV3_model_1/model/batch_normalization_10/FusedBatchNormV3_model_1/model/depthwise_conv2d_3/depthwise_model_1/model/conv2d_6/Conv2D" type="Clamp" version="opset1">
			<data min="0" max="6"/>
			<rt_info>
				<attribute name="fused_names" version="0" value="Maximum_859, model_1/model/re_lu_6/Relu6_model_1/model/batch_normalization_9/FusedBatchNormV3_model_1/model/batch_normalization_10/FusedBatchNormV3_model_1/model/depthwise_conv2d_3/depthwise_model_1/model/conv2d_6/Conv2D"/>
			</rt_info>
			<input>
				<port id="0" precision="FP32">
					<dim>1</dim>
					<dim>144</dim>
					<dim>56</dim>
					<dim>56</dim>
				</port>
			</input>
			<output>
				<port id="1" precision="FP32" names="model_1/model/re_lu_6/Relu6_model_1/model/batch_normalization_9/FusedBatchNormV3_model_1/model/batch_normalization_10/FusedBatchNormV3_model_1/model/depthwise_conv2d_3/depthwise_model_1/model/conv2d_6/Conv2D:0">
					<dim>1</dim>
					<dim>144</dim>
					<dim>56</dim>
					<dim>56</dim>
				</port>
			</output>
		</layer>
		<layer id="49" name="Reshape_868" type="Const" version="opset1">
			<data element_type="f32" shape="144, 1, 1, 5, 5" offset="66880" size="14400"/>
			<output>
				<port id="0" precision="FP32">
					<dim>144</dim>
					<dim>1</dim>
					<dim>1</dim>
					<dim>5</dim>
					<dim>5</dim>
				</port>
			</output>
		</layer>
		<layer id="50" name="Conv__370/WithoutBiases" type="GroupConvolution" version="opset1">
			<data strides="2, 2" pads_begin="2, 2" pads_end="2, 2" dilations="1, 1" auto_pad="explicit"/>
			<rt_info>
				<attribute name="fused_names" version="0" value="Conv__370/WithoutBiases, Reshape_868"/>
			</rt_info>
			<input>
				<port id="0" precision="FP32">
					<dim>1</dim>
					<dim>144</dim>
					<dim>56</dim>
					<dim>56</dim>
				</port>
				<port id="1" precision="FP32">
					<dim>144</dim>
					<dim>1</dim>
					<dim>1</dim>
					<dim>5</dim>
					<dim>5</dim>
				</port>
			</input>
			<output>
				<port id="2" precision="FP32">
					<dim>1</dim>
					<dim>144</dim>
					<dim>28</dim>
					<dim>28</dim>
				</port>
			</output>
		</layer>
		<layer id="51" name="Reshape_954" type="Const" version="opset1">
			<data element_type="f32" shape="1, 144, 1, 1" offset="81280" size="576"/>
			<output>
				<port id="0" precision="FP32">
					<dim>1</dim>
					<dim>144</dim>
					<dim>1</dim>
					<dim>1</dim>
				</port>
			</output>
		</layer>
		<layer id="52" name="Conv__370" type="Add" version="opset1">
			<data auto_broadcast="numpy"/>
			<rt_info>
				<attribute name="fused_names" version="0" value="Concat_953, Conv__370, Reshape_954"/>
			</rt_info>
			<input>
				<port id="0" precision="FP32">
					<dim>1</dim>
					<dim>144</dim>
					<dim>28</dim>
					<dim>28</dim>
				</port>
				<port id="1" precision="FP32">
					<dim>1</dim>
					<dim>144</dim>
					<dim>1</dim>
					<dim>1</dim>
				</port>
			</input>
			<output>
				<port id="2" precision="FP32" names="Conv__370:0">
					<dim>1</dim>
					<dim>144</dim>
					<dim>28</dim>
					<dim>28</dim>
				</port>
			</output>
		</layer>
		<layer id="53" name="model_1/model/re_lu_7/Relu6_model_1/model/batch_normalization_10/FusedBatchNormV3_model_1/model/depthwise_conv2d_3/depthwise" type="Clamp" version="opset1">
			<data min="0" max="6"/>
			<rt_info>
				<attribute name="fused_names" version="0" value="Maximum_982, model_1/model/re_lu_7/Relu6_model_1/model/batch_normalization_10/FusedBatchNormV3_model_1/model/depthwise_conv2d_3/depthwise"/>
			</rt_info>
			<input>
				<port id="0" precision="FP32">
					<dim>1</dim>
					<dim>144</dim>
					<dim>28</dim>
					<dim>28</dim>
				</port>
			</input>
			<output>
				<port id="1" precision="FP32" names="model_1/model/re_lu_7/Relu6_model_1/model/batch_normalization_10/FusedBatchNormV3_model_1/model/depthwise_conv2d_3/depthwise:0">
					<dim>1</dim>
					<dim>144</dim>
					<dim>28</dim>
					<dim>28</dim>
				</port>
			</output>
		</layer>
		<layer id="54" name="Conv2D_7/filter:0" type="Const" version="opset1">
			<data element_type="f32" shape="40, 144, 1, 1" offset="81856" size="23040"/>
			<rt_info>
				<attribute name="fused_names" version="0" value="Conv2D_7/filter:0"/>
			</rt_info>
			<output>
				<port id="0" precision="FP32" names="Conv2D_7/filter:0">
					<dim>40</dim>
					<dim>144</dim>
					<dim>1</dim>
					<dim>1</dim>
				</port>
			</output>
		</layer>
		<layer id="55" name="Conv__371/WithoutBiases" type="Convolution" version="opset1">
			<data strides="1, 1" dilations="1, 1" pads_begin="0, 0" pads_end="0, 0" auto_pad="explicit"/>
			<rt_info>
				<attribute name="fused_names" version="0" value="Conv__371/WithoutBiases"/>
			</rt_info>
			<input>
				<port id="0" precision="FP32">
					<dim>1</dim>
					<dim>144</dim>
					<dim>28</dim>
					<dim>28</dim>
				</port>
				<port id="1" precision="FP32">
					<dim>40</dim>
					<dim>144</dim>
					<dim>1</dim>
					<dim>1</dim>
				</port>
			</input>
			<output>
				<port id="2" precision="FP32">
					<dim>1</dim>
					<dim>40</dim>
					<dim>28</dim>
					<dim>28</dim>
				</port>
			</output>
		</layer>
		<layer id="56" name="Reshape_1004" type="Const" version="opset1">
			<data element_type="f32" shape="1, 40, 1, 1" offset="104896" size="160"/>
			<output>
				<port id="0" precision="FP32">
					<dim>1</dim>
					<dim>40</dim>
					<dim>1</dim>
					<dim>1</dim>
				</port>
			</output>
		</layer>
		<layer id="57" name="Conv__371" type="Add" version="opset1">
			<data auto_broadcast="numpy"/>
			<rt_info>
				<attribute name="fused_names" version="0" value="Concat_1003, Conv__371, Reshape_1004"/>
			</rt_info>
			<input>
				<port id="0" precision="FP32">
					<dim>1</dim>
					<dim>40</dim>
					<dim>28</dim>
					<dim>28</dim>
				</port>
				<port id="1" precision="FP32">
					<dim>1</dim>
					<dim>40</dim>
					<dim>1</dim>
					<dim>1</dim>
				</port>
			</input>
			<output>
				<port id="2" precision="FP32" names="Conv__371:0">
					<dim>1</dim>
					<dim>40</dim>
					<dim>28</dim>
					<dim>28</dim>
				</port>
			</output>
		</layer>
		<layer id="58" name="Conv2D_8/filter:0" type="Const" version="opset1">
			<data element_type="f32" shape="240, 40, 1, 1" offset="105056" size="38400"/>
			<rt_info>
				<attribute name="fused_names" version="0" value="Conv2D_8/filter:0"/>
			</rt_info>
			<output>
				<port id="0" precision="FP32" names="Conv2D_8/filter:0">
					<dim>240</dim>
					<dim>40</dim>
					<dim>1</dim>
					<dim>1</dim>
				</port>
			</output>
		</layer>
		<layer id="59" name="Conv__374/WithoutBiases" type="Convolution" version="opset1">
			<data strides="1, 1" dilations="1, 1" pads_begin="0, 0" pads_end="0, 0" auto_pad="explicit"/>
			<rt_info>
				<attribute name="fused_names" version="0" value="Conv__374/WithoutBiases"/>
			</rt_info>
			<input>
				<port id="0" precision="FP32">
					<dim>1</dim>
					<dim>40</dim>
					<dim>28</dim>
					<dim>28</dim>
				</port>
				<port id="1" precision="FP32">
					<dim>240</dim>
					<dim>40</dim>
					<dim>1</dim>
					<dim>1</dim>
				</port>
			</input>
			<output>
				<port id="2" precision="FP32">
					<dim>1</dim>
					<dim>240</dim>
					<dim>28</dim>
					<dim>28</dim>
				</port>
			</output>
		</layer>
		<layer id="60" name="Reshape_1052" type="Const" version="opset1">
			<data element_type="f32" shape="1, 240, 1, 1" offset="143456" size="960"/>
			<output>
				<port id="0" precision="FP32">
					<dim>1</dim>
					<dim>240</dim>
					<dim>1</dim>
					<dim>1</dim>
				</port>
			</output>
		</layer>
		<layer id="61" name="Conv__374" type="Add" version="opset1">
			<data auto_broadcast="numpy"/>
			<rt_info>
				<attribute name="fused_names" version="0" value="Concat_1051, Conv__374, Reshape_1052"/>
			</rt_info>
			<input>
				<port id="0" precision="FP32">
					<dim>1</dim>
					<dim>240</dim>
					<dim>28</dim>
					<dim>28</dim>
				</port>
				<port id="1" precision="FP32">
					<dim>1</dim>
					<dim>240</dim>
					<dim>1</dim>
					<dim>1</dim>
				</port>
			</input>
			<output>
				<port id="2" precision="FP32" names="Conv__374:0">
					<dim>1</dim>
					<dim>240</dim>
					<dim>28</dim>
					<dim>28</dim>
				</port>
			</output>
		</layer>
		<layer id="62" name="model_1/model/re_lu_8/Relu6_model_1/model/batch_normalization_12/FusedBatchNormV3_model_1/model/batch_normalization_16/FusedBatchNormV3_model_1/model/depthwise_conv2d_5/depthwise_model_1/model/conv2d_8/Conv2D" type="Clamp" version="opset1">
			<data min="0" max="6"/>
			<rt_info>
				<attribute name="fused_names" version="0" value="Maximum_1080, model_1/model/re_lu_8/Relu6_model_1/model/batch_normalization_12/FusedBatchNormV3_model_1/model/batch_normalization_16/FusedBatchNormV3_model_1/model/depthwise_conv2d_5/depthwise_model_1/model/conv2d_8/Conv2D"/>
			</rt_info>
			<input>
				<port id="0" precision="FP32">
					<dim>1</dim>
					<dim>240</dim>
					<dim>28</dim>
					<dim>28</dim>
				</port>
			</input>
			<output>
				<port id="1" precision="FP32" names="model_1/model/re_lu_8/Relu6_model_1/model/batch_normalization_12/FusedBatchNormV3_model_1/model/batch_normalization_16/FusedBatchNormV3_model_1/model/depthwise_conv2d_5/depthwise_model_1/model/conv2d_8/Conv2D:0">
					<dim>1</dim>
					<dim>240</dim>
					<dim>28</dim>
					<dim>28</dim>
				</port>
			</output>
		</layer>
		<layer id="63" name="Reshape_1089" type="Const" version="opset1">
			<data element_type="f32" shape="240, 1, 1, 5, 5" offset="144416" size="24000"/>
			<output>
				<port id="0" precision="FP32">
					<dim>240</dim>
					<dim>1</dim>
					<dim>1</dim>
					<dim>5</dim>
					<dim>5</dim>
				</port>
			</output>
		</layer>
		<layer id="64" name="Conv__375/WithoutBiases" type="GroupConvolution" version="opset1">
			<data strides="1, 1" pads_begin="2, 2" pads_end="2, 2" dilations="1, 1" auto_pad="explicit"/>
			<rt_info>
				<attribute name="fused_names" version="0" value="Conv__375/WithoutBiases, Reshape_1089"/>
			</rt_info>
			<input>
				<port id="0" precision="FP32">
					<dim>1</dim>
					<dim>240</dim>
					<dim>28</dim>
					<dim>28</dim>
				</port>
				<port id="1" precision="FP32">
					<dim>240</dim>
					<dim>1</dim>
					<dim>1</dim>
					<dim>5</dim>
					<dim>5</dim>
				</port>
			</input>
			<output>
				<port id="2" precision="FP32">
					<dim>1</dim>
					<dim>240</dim>
					<dim>28</dim>
					<dim>28</dim>
				</port>
			</output>
		</layer>
		<layer id="65" name="Reshape_1175" type="Const" version="opset1">
			<data element_type="f32" shape="1, 240, 1, 1" offset="168416" size="960"/>
			<output>
				<port id="0" precision="FP32">
					<dim>1</dim>
					<dim>240</dim>
					<dim>1</dim>
					<dim>1</dim>
				</port>
			</output>
		</layer>
		<layer id="66" name="Conv__375" type="Add" version="opset1">
			<data auto_broadcast="numpy"/>
			<rt_info>
				<attribute name="fused_names" version="0" value="Concat_1174, Conv__375, Reshape_1175"/>
			</rt_info>
			<input>
				<port id="0" precision="FP32">
					<dim>1</dim>
					<dim>240</dim>
					<dim>28</dim>
					<dim>28</dim>
				</port>
				<port id="1" precision="FP32">
					<dim>1</dim>
					<dim>240</dim>
					<dim>1</dim>
					<dim>1</dim>
				</port>
			</input>
			<output>
				<port id="2" precision="FP32" names="Conv__375:0">
					<dim>1</dim>
					<dim>240</dim>
					<dim>28</dim>
					<dim>28</dim>
				</port>
			</output>
		</layer>
		<layer id="67" name="model_1/model/re_lu_9/Relu6_model_1/model/batch_normalization_13/FusedBatchNormV3_model_1/model/batch_normalization_16/FusedBatchNormV3_model_1/model/depthwise_conv2d_5/depthwise_model_1/model/depthwise_conv2d_4/depthwise" type="Clamp" version="opset1">
			<data min="0" max="6"/>
			<rt_info>
				<attribute name="fused_names" version="0" value="Maximum_1203, model_1/model/re_lu_9/Relu6_model_1/model/batch_normalization_13/FusedBatchNormV3_model_1/model/batch_normalization_16/FusedBatchNormV3_model_1/model/depthwise_conv2d_5/depthwise_model_1/model/depthwise_conv2d_4/depthwise"/>
			</rt_info>
			<input>
				<port id="0" precision="FP32">
					<dim>1</dim>
					<dim>240</dim>
					<dim>28</dim>
					<dim>28</dim>
				</port>
			</input>
			<output>
				<port id="1" precision="FP32" names="model_1/model/re_lu_9/Relu6_model_1/model/batch_normalization_13/FusedBatchNormV3_model_1/model/batch_normalization_16/FusedBatchNormV3_model_1/model/depthwise_conv2d_5/depthwise_model_1/model/depthwise_conv2d_4/depthwise:0">
					<dim>1</dim>
					<dim>240</dim>
					<dim>28</dim>
					<dim>28</dim>
				</port>
			</output>
		</layer>
		<layer id="68" name="Conv2D_9/filter:0" type="Const" version="opset1">
			<data element_type="f32" shape="40, 240, 1, 1" offset="169376" size="38400"/>
			<rt_info>
				<attribute name="fused_names" version="0" value="Conv2D_9/filter:0"/>
			</rt_info>
			<output>
				<port id="0" precision="FP32" names="Conv2D_9/filter:0">
					<dim>40</dim>
					<dim>240</dim>
					<dim>1</dim>
					<dim>1</dim>
				</port>
			</output>
		</layer>
		<layer id="69" name="Conv__376/WithoutBiases" type="Convolution" version="opset1">
			<data strides="1, 1" dilations="1, 1" pads_begin="0, 0" pads_end="0, 0" auto_pad="explicit"/>
			<rt_info>
				<attribute name="fused_names" version="0" value="Conv__376/WithoutBiases"/>
			</rt_info>
			<input>
				<port id="0" precision="FP32">
					<dim>1</dim>
					<dim>240</dim>
					<dim>28</dim>
					<dim>28</dim>
				</port>
				<port id="1" precision="FP32">
					<dim>40</dim>
					<dim>240</dim>
					<dim>1</dim>
					<dim>1</dim>
				</port>
			</input>
			<output>
				<port id="2" precision="FP32">
					<dim>1</dim>
					<dim>40</dim>
					<dim>28</dim>
					<dim>28</dim>
				</port>
			</output>
		</layer>
		<layer id="70" name="Reshape_1225" type="Const" version="opset1">
			<data element_type="f32" shape="1, 40, 1, 1" offset="207776" size="160"/>
			<output>
				<port id="0" precision="FP32">
					<dim>1</dim>
					<dim>40</dim>
					<dim>1</dim>
					<dim>1</dim>
				</port>
			</output>
		</layer>
		<layer id="71" name="Conv__376" type="Add" version="opset1">
			<data auto_broadcast="numpy"/>
			<rt_info>
				<attribute name="fused_names" version="0" value="Concat_1224, Conv__376, Reshape_1225"/>
			</rt_info>
			<input>
				<port id="0" precision="FP32">
					<dim>1</dim>
					<dim>40</dim>
					<dim>28</dim>
					<dim>28</dim>
				</port>
				<port id="1" precision="FP32">
					<dim>1</dim>
					<dim>40</dim>
					<dim>1</dim>
					<dim>1</dim>
				</port>
			</input>
			<output>
				<port id="2" precision="FP32" names="Conv__376:0">
					<dim>1</dim>
					<dim>40</dim>
					<dim>28</dim>
					<dim>28</dim>
				</port>
			</output>
		</layer>
		<layer id="72" name="model_1/model/add_1/add" type="Add" version="opset1">
			<data auto_broadcast="numpy"/>
			<rt_info>
				<attribute name="fused_names" version="0" value="model_1/model/add_1/add"/>
			</rt_info>
			<input>
				<port id="0" precision="FP32">
					<dim>1</dim>
					<dim>40</dim>
					<dim>28</dim>
					<dim>28</dim>
				</port>
				<port id="1" precision="FP32">
					<dim>1</dim>
					<dim>40</dim>
					<dim>28</dim>
					<dim>28</dim>
				</port>
			</input>
			<output>
				<port id="2" precision="FP32" names="model_1/model/add_1/add:0">
					<dim>1</dim>
					<dim>40</dim>
					<dim>28</dim>
					<dim>28</dim>
				</port>
			</output>
		</layer>
		<layer id="73" name="Reshape_1262" type="Const" version="opset1">
			<data element_type="f32" shape="40, 1, 1, 3, 3" offset="207936" size="1440"/>
			<output>
				<port id="0" precision="FP32">
					<dim>40</dim>
					<dim>1</dim>
					<dim>1</dim>
					<dim>3</dim>
					<dim>3</dim>
				</port>
			</output>
		</layer>
		<layer id="74" name="depthwise_5" type="GroupConvolution" version="opset1">
			<data strides="1, 1" pads_begin="1, 1" pads_end="1, 1" dilations="1, 1" auto_pad="explicit"/>
			<rt_info>
				<attribute name="fused_names" version="0" value="Reshape_1262, depthwise_5"/>
			</rt_info>
			<input>
				<port id="0" precision="FP32">
					<dim>1</dim>
					<dim>40</dim>
					<dim>28</dim>
					<dim>28</dim>
				</port>
				<port id="1" precision="FP32">
					<dim>40</dim>
					<dim>1</dim>
					<dim>1</dim>
					<dim>3</dim>
					<dim>3</dim>
				</port>
			</input>
			<output>
				<port id="2" precision="FP32" names="depthwise_5:0">
					<dim>1</dim>
					<dim>40</dim>
					<dim>28</dim>
					<dim>28</dim>
				</port>
			</output>
		</layer>
		<layer id="75" name="Conv2D_11/filter:0" type="Const" version="opset1">
			<data element_type="f32" shape="96, 40, 1, 1" offset="209376" size="15360"/>
			<rt_info>
				<attribute name="fused_names" version="0" value="Conv2D_11/filter:0"/>
			</rt_info>
			<output>
				<port id="0" precision="FP32" names="Conv2D_11/filter:0">
					<dim>96</dim>
					<dim>40</dim>
					<dim>1</dim>
					<dim>1</dim>
				</port>
			</output>
		</layer>
		<layer id="76" name="Conv__377/WithoutBiases" type="Convolution" version="opset1">
			<data strides="1, 1" dilations="1, 1" pads_begin="0, 0" pads_end="0, 0" auto_pad="explicit"/>
			<rt_info>
				<attribute name="fused_names" version="0" value="Conv__377/WithoutBiases"/>
			</rt_info>
			<input>
				<port id="0" precision="FP32">
					<dim>1</dim>
					<dim>40</dim>
					<dim>28</dim>
					<dim>28</dim>
				</port>
				<port id="1" precision="FP32">
					<dim>96</dim>
					<dim>40</dim>
					<dim>1</dim>
					<dim>1</dim>
				</port>
			</input>
			<output>
				<port id="2" precision="FP32">
					<dim>1</dim>
					<dim>96</dim>
					<dim>28</dim>
					<dim>28</dim>
				</port>
			</output>
		</layer>
		<layer id="77" name="Reshape_1349" type="Const" version="opset1">
			<data element_type="f32" shape="1, 96, 1, 1" offset="224736" size="384"/>
			<output>
				<port id="0" precision="FP32">
					<dim>1</dim>
					<dim>96</dim>
					<dim>1</dim>
					<dim>1</dim>
				</port>
			</output>
		</layer>
		<layer id="78" name="Conv__377" type="Add" version="opset1">
			<data auto_broadcast="numpy"/>
			<rt_info>
				<attribute name="fused_names" version="0" value="Concat_1348, Conv__377, Reshape_1349"/>
			</rt_info>
			<input>
				<port id="0" precision="FP32">
					<dim>1</dim>
					<dim>96</dim>
					<dim>28</dim>
					<dim>28</dim>
				</port>
				<port id="1" precision="FP32">
					<dim>1</dim>
					<dim>96</dim>
					<dim>1</dim>
					<dim>1</dim>
				</port>
			</input>
			<output>
				<port id="2" precision="FP32" names="Conv__377:0">
					<dim>1</dim>
					<dim>96</dim>
					<dim>28</dim>
					<dim>28</dim>
				</port>
			</output>
		</layer>
		<layer id="79" name="model_1/model/activation_5/Relu6_model_1/model/batch_normalization_52/FusedBatchNormV3_model_1/model/conv2d_38/Conv2D_model_1/model/conv2d_36/Conv2D" type="Clamp" version="opset1">
			<data min="0" max="6"/>
			<rt_info>
				<attribute name="fused_names" version="0" value="Maximum_1377, model_1/model/activation_5/Relu6_model_1/model/batch_normalization_52/FusedBatchNormV3_model_1/model/conv2d_38/Conv2D_model_1/model/conv2d_36/Conv2D"/>
			</rt_info>
			<input>
				<port id="0" precision="FP32">
					<dim>1</dim>
					<dim>96</dim>
					<dim>28</dim>
					<dim>28</dim>
				</port>
			</input>
			<output>
				<port id="1" precision="FP32" names="model_1/model/activation_5/Relu6_model_1/model/batch_normalization_52/FusedBatchNormV3_model_1/model/conv2d_38/Conv2D_model_1/model/conv2d_36/Conv2D:0">
					<dim>1</dim>
					<dim>96</dim>
					<dim>28</dim>
					<dim>28</dim>
				</port>
			</output>
		</layer>
		<layer id="80" name="Conv2D_10/filter:0" type="Const" version="opset1">
			<data element_type="f32" shape="240, 40, 1, 1" offset="225120" size="38400"/>
			<rt_info>
				<attribute name="fused_names" version="0" value="Conv2D_10/filter:0"/>
			</rt_info>
			<output>
				<port id="0" precision="FP32" names="Conv2D_10/filter:0">
					<dim>240</dim>
					<dim>40</dim>
					<dim>1</dim>
					<dim>1</dim>
				</port>
			</output>
		</layer>
		<layer id="81" name="Conv__382/WithoutBiases" type="Convolution" version="opset1">
			<data strides="1, 1" dilations="1, 1" pads_begin="0, 0" pads_end="0, 0" auto_pad="explicit"/>
			<rt_info>
				<attribute name="fused_names" version="0" value="Conv__382/WithoutBiases"/>
			</rt_info>
			<input>
				<port id="0" precision="FP32">
					<dim>1</dim>
					<dim>40</dim>
					<dim>28</dim>
					<dim>28</dim>
				</port>
				<port id="1" precision="FP32">
					<dim>240</dim>
					<dim>40</dim>
					<dim>1</dim>
					<dim>1</dim>
				</port>
			</input>
			<output>
				<port id="2" precision="FP32">
					<dim>1</dim>
					<dim>240</dim>
					<dim>28</dim>
					<dim>28</dim>
				</port>
			</output>
		</layer>
		<layer id="82" name="Reshape_1399" type="Const" version="opset1">
			<data element_type="f32" shape="1, 240, 1, 1" offset="263520" size="960"/>
			<output>
				<port id="0" precision="FP32">
					<dim>1</dim>
					<dim>240</dim>
					<dim>1</dim>
					<dim>1</dim>
				</port>
			</output>
		</layer>
		<layer id="83" name="Conv__382" type="Add" version="opset1">
			<data auto_broadcast="numpy"/>
			<rt_info>
				<attribute name="fused_names" version="0" value="Concat_1398, Conv__382, Reshape_1399"/>
			</rt_info>
			<input>
				<port id="0" precision="FP32">
					<dim>1</dim>
					<dim>240</dim>
					<dim>28</dim>
					<dim>28</dim>
				</port>
				<port id="1" precision="FP32">
					<dim>1</dim>
					<dim>240</dim>
					<dim>1</dim>
					<dim>1</dim>
				</port>
			</input>
			<output>
				<port id="2" precision="FP32" names="Conv__382:0">
					<dim>1</dim>
					<dim>240</dim>
					<dim>28</dim>
					<dim>28</dim>
				</port>
			</output>
		</layer>
		<layer id="84" name="model_1/model/re_lu_10/Relu6_model_1/model/batch_normalization_15/FusedBatchNormV3_model_1/model/batch_normalization_16/FusedBatchNormV3_model_1/model/depthwise_conv2d_5/depthwise_model_1/model/conv2d_10/Conv2D" type="Clamp" version="opset1">
			<data min="0" max="6"/>
			<rt_info>
				<attribute name="fused_names" version="0" value="Maximum_1427, model_1/model/re_lu_10/Relu6_model_1/model/batch_normalization_15/FusedBatchNormV3_model_1/model/batch_normalization_16/FusedBatchNormV3_model_1/model/depthwise_conv2d_5/depthwise_model_1/model/conv2d_10/Conv2D"/>
			</rt_info>
			<input>
				<port id="0" precision="FP32">
					<dim>1</dim>
					<dim>240</dim>
					<dim>28</dim>
					<dim>28</dim>
				</port>
			</input>
			<output>
				<port id="1" precision="FP32" names="model_1/model/re_lu_10/Relu6_model_1/model/batch_normalization_15/FusedBatchNormV3_model_1/model/batch_normalization_16/FusedBatchNormV3_model_1/model/depthwise_conv2d_5/depthwise_model_1/model/conv2d_10/Conv2D:0">
					<dim>1</dim>
					<dim>240</dim>
					<dim>28</dim>
					<dim>28</dim>
				</port>
			</output>
		</layer>
		<layer id="85" name="Reshape_1436" type="Const" version="opset1">
			<data element_type="f32" shape="240, 1, 1, 3, 3" offset="264480" size="8640"/>
			<output>
				<port id="0" precision="FP32">
					<dim>240</dim>
					<dim>1</dim>
					<dim>1</dim>
					<dim>3</dim>
					<dim>3</dim>
				</port>
			</output>
		</layer>
		<layer id="86" name="Conv__383/WithoutBiases" type="GroupConvolution" version="opset1">
			<data strides="2, 2" pads_begin="1, 1" pads_end="1, 1" dilations="1, 1" auto_pad="explicit"/>
			<rt_info>
				<attribute name="fused_names" version="0" value="Conv__383/WithoutBiases, Reshape_1436"/>
			</rt_info>
			<input>
				<port id="0" precision="FP32">
					<dim>1</dim>
					<dim>240</dim>
					<dim>28</dim>
					<dim>28</dim>
				</port>
				<port id="1" precision="FP32">
					<dim>240</dim>
					<dim>1</dim>
					<dim>1</dim>
					<dim>3</dim>
					<dim>3</dim>
				</port>
			</input>
			<output>
				<port id="2" precision="FP32">
					<dim>1</dim>
					<dim>240</dim>
					<dim>14</dim>
					<dim>14</dim>
				</port>
			</output>
		</layer>
		<layer id="87" name="Reshape_1522" type="Const" version="opset1">
			<data element_type="f32" shape="1, 240, 1, 1" offset="273120" size="960"/>
			<output>
				<port id="0" precision="FP32">
					<dim>1</dim>
					<dim>240</dim>
					<dim>1</dim>
					<dim>1</dim>
				</port>
			</output>
		</layer>
		<layer id="88" name="Conv__383" type="Add" version="opset1">
			<data auto_broadcast="numpy"/>
			<rt_info>
				<attribute name="fused_names" version="0" value="Concat_1521, Conv__383, Reshape_1522"/>
			</rt_info>
			<input>
				<port id="0" precision="FP32">
					<dim>1</dim>
					<dim>240</dim>
					<dim>14</dim>
					<dim>14</dim>
				</port>
				<port id="1" precision="FP32">
					<dim>1</dim>
					<dim>240</dim>
					<dim>1</dim>
					<dim>1</dim>
				</port>
			</input>
			<output>
				<port id="2" precision="FP32" names="Conv__383:0">
					<dim>1</dim>
					<dim>240</dim>
					<dim>14</dim>
					<dim>14</dim>
				</port>
			</output>
		</layer>
		<layer id="89" name="model_1/model/re_lu_11/Relu6_model_1/model/batch_normalization_16/FusedBatchNormV3_model_1/model/depthwise_conv2d_5/depthwise" type="Clamp" version="opset1">
			<data min="0" max="6"/>
			<rt_info>
				<attribute name="fused_names" version="0" value="Maximum_1550, model_1/model/re_lu_11/Relu6_model_1/model/batch_normalization_16/FusedBatchNormV3_model_1/model/depthwise_conv2d_5/depthwise"/>
			</rt_info>
			<input>
				<port id="0" precision="FP32">
					<dim>1</dim>
					<dim>240</dim>
					<dim>14</dim>
					<dim>14</dim>
				</port>
			</input>
			<output>
				<port id="1" precision="FP32" names="model_1/model/re_lu_11/Relu6_model_1/model/batch_normalization_16/FusedBatchNormV3_model_1/model/depthwise_conv2d_5/depthwise:0">
					<dim>1</dim>
					<dim>240</dim>
					<dim>14</dim>
					<dim>14</dim>
				</port>
			</output>
		</layer>
		<layer id="90" name="Conv2D_12/filter:0" type="Const" version="opset1">
			<data element_type="f32" shape="80, 240, 1, 1" offset="274080" size="76800"/>
			<rt_info>
				<attribute name="fused_names" version="0" value="Conv2D_12/filter:0"/>
			</rt_info>
			<output>
				<port id="0" precision="FP32" names="Conv2D_12/filter:0">
					<dim>80</dim>
					<dim>240</dim>
					<dim>1</dim>
					<dim>1</dim>
				</port>
			</output>
		</layer>
		<layer id="91" name="Conv__384/WithoutBiases" type="Convolution" version="opset1">
			<data strides="1, 1" dilations="1, 1" pads_begin="0, 0" pads_end="0, 0" auto_pad="explicit"/>
			<rt_info>
				<attribute name="fused_names" version="0" value="Conv__384/WithoutBiases"/>
			</rt_info>
			<input>
				<port id="0" precision="FP32">
					<dim>1</dim>
					<dim>240</dim>
					<dim>14</dim>
					<dim>14</dim>
				</port>
				<port id="1" precision="FP32">
					<dim>80</dim>
					<dim>240</dim>
					<dim>1</dim>
					<dim>1</dim>
				</port>
			</input>
			<output>
				<port id="2" precision="FP32">
					<dim>1</dim>
					<dim>80</dim>
					<dim>14</dim>
					<dim>14</dim>
				</port>
			</output>
		</layer>
		<layer id="92" name="Reshape_1572" type="Const" version="opset1">
			<data element_type="f32" shape="1, 80, 1, 1" offset="350880" size="320"/>
			<output>
				<port id="0" precision="FP32">
					<dim>1</dim>
					<dim>80</dim>
					<dim>1</dim>
					<dim>1</dim>
				</port>
			</output>
		</layer>
		<layer id="93" name="Conv__384" type="Add" version="opset1">
			<data auto_broadcast="numpy"/>
			<rt_info>
				<attribute name="fused_names" version="0" value="Concat_1571, Conv__384, Reshape_1572"/>
			</rt_info>
			<input>
				<port id="0" precision="FP32">
					<dim>1</dim>
					<dim>80</dim>
					<dim>14</dim>
					<dim>14</dim>
				</port>
				<port id="1" precision="FP32">
					<dim>1</dim>
					<dim>80</dim>
					<dim>1</dim>
					<dim>1</dim>
				</port>
			</input>
			<output>
				<port id="2" precision="FP32" names="Conv__384:0">
					<dim>1</dim>
					<dim>80</dim>
					<dim>14</dim>
					<dim>14</dim>
				</port>
			</output>
		</layer>
		<layer id="94" name="Conv2D_13/filter:0" type="Const" version="opset1">
			<data element_type="f32" shape="480, 80, 1, 1" offset="351200" size="153600"/>
			<rt_info>
				<attribute name="fused_names" version="0" value="Conv2D_13/filter:0"/>
			</rt_info>
			<output>
				<port id="0" precision="FP32" names="Conv2D_13/filter:0">
					<dim>480</dim>
					<dim>80</dim>
					<dim>1</dim>
					<dim>1</dim>
				</port>
			</output>
		</layer>
		<layer id="95" name="Conv__387/WithoutBiases" type="Convolution" version="opset1">
			<data strides="1, 1" dilations="1, 1" pads_begin="0, 0" pads_end="0, 0" auto_pad="explicit"/>
			<rt_info>
				<attribute name="fused_names" version="0" value="Conv__387/WithoutBiases"/>
			</rt_info>
			<input>
				<port id="0" precision="FP32">
					<dim>1</dim>
					<dim>80</dim>
					<dim>14</dim>
					<dim>14</dim>
				</port>
				<port id="1" precision="FP32">
					<dim>480</dim>
					<dim>80</dim>
					<dim>1</dim>
					<dim>1</dim>
				</port>
			</input>
			<output>
				<port id="2" precision="FP32">
					<dim>1</dim>
					<dim>480</dim>
					<dim>14</dim>
					<dim>14</dim>
				</port>
			</output>
		</layer>
		<layer id="96" name="Reshape_1620" type="Const" version="opset1">
			<data element_type="f32" shape="1, 480, 1, 1" offset="504800" size="1920"/>
			<output>
				<port id="0" precision="FP32">
					<dim>1</dim>
					<dim>480</dim>
					<dim>1</dim>
					<dim>1</dim>
				</port>
			</output>
		</layer>
		<layer id="97" name="Conv__387" type="Add" version="opset1">
			<data auto_broadcast="numpy"/>
			<rt_info>
				<attribute name="fused_names" version="0" value="Concat_1619, Conv__387, Reshape_1620"/>
			</rt_info>
			<input>
				<port id="0" precision="FP32">
					<dim>1</dim>
					<dim>480</dim>
					<dim>14</dim>
					<dim>14</dim>
				</port>
				<port id="1" precision="FP32">
					<dim>1</dim>
					<dim>480</dim>
					<dim>1</dim>
					<dim>1</dim>
				</port>
			</input>
			<output>
				<port id="2" precision="FP32" names="Conv__387:0">
					<dim>1</dim>
					<dim>480</dim>
					<dim>14</dim>
					<dim>14</dim>
				</port>
			</output>
		</layer>
		<layer id="98" name="model_1/model/re_lu_12/Relu6_model_1/model/batch_normalization_18/FusedBatchNormV3_model_1/model/batch_normalization_25/FusedBatchNormV3_model_1/model/depthwise_conv2d_8/depthwise_model_1/model/conv2d_12/Conv2D" type="Clamp" version="opset1">
			<data min="0" max="6"/>
			<rt_info>
				<attribute name="fused_names" version="0" value="Maximum_1648, model_1/model/re_lu_12/Relu6_model_1/model/batch_normalization_18/FusedBatchNormV3_model_1/model/batch_normalization_25/FusedBatchNormV3_model_1/model/depthwise_conv2d_8/depthwise_model_1/model/conv2d_12/Conv2D"/>
			</rt_info>
			<input>
				<port id="0" precision="FP32">
					<dim>1</dim>
					<dim>480</dim>
					<dim>14</dim>
					<dim>14</dim>
				</port>
			</input>
			<output>
				<port id="1" precision="FP32" names="model_1/model/re_lu_12/Relu6_model_1/model/batch_normalization_18/FusedBatchNormV3_model_1/model/batch_normalization_25/FusedBatchNormV3_model_1/model/depthwise_conv2d_8/depthwise_model_1/model/conv2d_12/Conv2D:0">
					<dim>1</dim>
					<dim>480</dim>
					<dim>14</dim>
					<dim>14</dim>
				</port>
			</output>
		</layer>
		<layer id="99" name="Reshape_1657" type="Const" version="opset1">
			<data element_type="f32" shape="480, 1, 1, 3, 3" offset="506720" size="17280"/>
			<output>
				<port id="0" precision="FP32">
					<dim>480</dim>
					<dim>1</dim>
					<dim>1</dim>
					<dim>3</dim>
					<dim>3</dim>
				</port>
			</output>
		</layer>
		<layer id="100" name="Conv__388/WithoutBiases" type="GroupConvolution" version="opset1">
			<data strides="1, 1" pads_begin="1, 1" pads_end="1, 1" dilations="1, 1" auto_pad="explicit"/>
			<rt_info>
				<attribute name="fused_names" version="0" value="Conv__388/WithoutBiases, Reshape_1657"/>
			</rt_info>
			<input>
				<port id="0" precision="FP32">
					<dim>1</dim>
					<dim>480</dim>
					<dim>14</dim>
					<dim>14</dim>
				</port>
				<port id="1" precision="FP32">
					<dim>480</dim>
					<dim>1</dim>
					<dim>1</dim>
					<dim>3</dim>
					<dim>3</dim>
				</port>
			</input>
			<output>
				<port id="2" precision="FP32">
					<dim>1</dim>
					<dim>480</dim>
					<dim>14</dim>
					<dim>14</dim>
				</port>
			</output>
		</layer>
		<layer id="101" name="Reshape_1743" type="Const" version="opset1">
			<data element_type="f32" shape="1, 480, 1, 1" offset="524000" size="1920"/>
			<output>
				<port id="0" precision="FP32">
					<dim>1</dim>
					<dim>480</dim>
					<dim>1</dim>
					<dim>1</dim>
				</port>
			</output>
		</layer>
		<layer id="102" name="Conv__388" type="Add" version="opset1">
			<data auto_broadcast="numpy"/>
			<rt_info>
				<attribute name="fused_names" version="0" value="Concat_1742, Conv__388, Reshape_1743"/>
			</rt_info>
			<input>
				<port id="0" precision="FP32">
					<dim>1</dim>
					<dim>480</dim>
					<dim>14</dim>
					<dim>14</dim>
				</port>
				<port id="1" precision="FP32">
					<dim>1</dim>
					<dim>480</dim>
					<dim>1</dim>
					<dim>1</dim>
				</port>
			</input>
			<output>
				<port id="2" precision="FP32" names="Conv__388:0">
					<dim>1</dim>
					<dim>480</dim>
					<dim>14</dim>
					<dim>14</dim>
				</port>
			</output>
		</layer>
		<layer id="103" name="model_1/model/re_lu_13/Relu6_model_1/model/batch_normalization_19/FusedBatchNormV3_model_1/model/batch_normalization_25/FusedBatchNormV3_model_1/model/depthwise_conv2d_8/depthwise_model_1/model/depthwise_conv2d_6/depthwise" type="Clamp" version="opset1">
			<data min="0" max="6"/>
			<rt_info>
				<attribute name="fused_names" version="0" value="Maximum_1771, model_1/model/re_lu_13/Relu6_model_1/model/batch_normalization_19/FusedBatchNormV3_model_1/model/batch_normalization_25/FusedBatchNormV3_model_1/model/depthwise_conv2d_8/depthwise_model_1/model/depthwise_conv2d_6/depthwise"/>
			</rt_info>
			<input>
				<port id="0" precision="FP32">
					<dim>1</dim>
					<dim>480</dim>
					<dim>14</dim>
					<dim>14</dim>
				</port>
			</input>
			<output>
				<port id="1" precision="FP32" names="model_1/model/re_lu_13/Relu6_model_1/model/batch_normalization_19/FusedBatchNormV3_model_1/model/batch_normalization_25/FusedBatchNormV3_model_1/model/depthwise_conv2d_8/depthwise_model_1/model/depthwise_conv2d_6/depthwise:0">
					<dim>1</dim>
					<dim>480</dim>
					<dim>14</dim>
					<dim>14</dim>
				</port>
			</output>
		</layer>
		<layer id="104" name="Conv2D_14/filter:0" type="Const" version="opset1">
			<data element_type="f32" shape="80, 480, 1, 1" offset="525920" size="153600"/>
			<rt_info>
				<attribute name="fused_names" version="0" value="Conv2D_14/filter:0"/>
			</rt_info>
			<output>
				<port id="0" precision="FP32" names="Conv2D_14/filter:0">
					<dim>80</dim>
					<dim>480</dim>
					<dim>1</dim>
					<dim>1</dim>
				</port>
			</output>
		</layer>
		<layer id="105" name="Conv__389/WithoutBiases" type="Convolution" version="opset1">
			<data strides="1, 1" dilations="1, 1" pads_begin="0, 0" pads_end="0, 0" auto_pad="explicit"/>
			<rt_info>
				<attribute name="fused_names" version="0" value="Conv__389/WithoutBiases"/>
			</rt_info>
			<input>
				<port id="0" precision="FP32">
					<dim>1</dim>
					<dim>480</dim>
					<dim>14</dim>
					<dim>14</dim>
				</port>
				<port id="1" precision="FP32">
					<dim>80</dim>
					<dim>480</dim>
					<dim>1</dim>
					<dim>1</dim>
				</port>
			</input>
			<output>
				<port id="2" precision="FP32">
					<dim>1</dim>
					<dim>80</dim>
					<dim>14</dim>
					<dim>14</dim>
				</port>
			</output>
		</layer>
		<layer id="106" name="Reshape_1793" type="Const" version="opset1">
			<data element_type="f32" shape="1, 80, 1, 1" offset="679520" size="320"/>
			<output>
				<port id="0" precision="FP32">
					<dim>1</dim>
					<dim>80</dim>
					<dim>1</dim>
					<dim>1</dim>
				</port>
			</output>
		</layer>
		<layer id="107" name="Conv__389" type="Add" version="opset1">
			<data auto_broadcast="numpy"/>
			<rt_info>
				<attribute name="fused_names" version="0" value="Concat_1792, Conv__389, Reshape_1793"/>
			</rt_info>
			<input>
				<port id="0" precision="FP32">
					<dim>1</dim>
					<dim>80</dim>
					<dim>14</dim>
					<dim>14</dim>
				</port>
				<port id="1" precision="FP32">
					<dim>1</dim>
					<dim>80</dim>
					<dim>1</dim>
					<dim>1</dim>
				</port>
			</input>
			<output>
				<port id="2" precision="FP32" names="Conv__389:0">
					<dim>1</dim>
					<dim>80</dim>
					<dim>14</dim>
					<dim>14</dim>
				</port>
			</output>
		</layer>
		<layer id="108" name="model_1/model/add_2/add" type="Add" version="opset1">
			<data auto_broadcast="numpy"/>
			<rt_info>
				<attribute name="fused_names" version="0" value="model_1/model/add_2/add"/>
			</rt_info>
			<input>
				<port id="0" precision="FP32">
					<dim>1</dim>
					<dim>80</dim>
					<dim>14</dim>
					<dim>14</dim>
				</port>
				<port id="1" precision="FP32">
					<dim>1</dim>
					<dim>80</dim>
					<dim>14</dim>
					<dim>14</dim>
				</port>
			</input>
			<output>
				<port id="2" precision="FP32" names="model_1/model/add_2/add:0">
					<dim>1</dim>
					<dim>80</dim>
					<dim>14</dim>
					<dim>14</dim>
				</port>
			</output>
		</layer>
		<layer id="109" name="Conv2D_15/filter:0" type="Const" version="opset1">
			<data element_type="f32" shape="480, 80, 1, 1" offset="679840" size="153600"/>
			<rt_info>
				<attribute name="fused_names" version="0" value="Conv2D_15/filter:0"/>
			</rt_info>
			<output>
				<port id="0" precision="FP32" names="Conv2D_15/filter:0">
					<dim>480</dim>
					<dim>80</dim>
					<dim>1</dim>
					<dim>1</dim>
				</port>
			</output>
		</layer>
		<layer id="110" name="Conv__392/WithoutBiases" type="Convolution" version="opset1">
			<data strides="1, 1" dilations="1, 1" pads_begin="0, 0" pads_end="0, 0" auto_pad="explicit"/>
			<rt_info>
				<attribute name="fused_names" version="0" value="Conv__392/WithoutBiases"/>
			</rt_info>
			<input>
				<port id="0" precision="FP32">
					<dim>1</dim>
					<dim>80</dim>
					<dim>14</dim>
					<dim>14</dim>
				</port>
				<port id="1" precision="FP32">
					<dim>480</dim>
					<dim>80</dim>
					<dim>1</dim>
					<dim>1</dim>
				</port>
			</input>
			<output>
				<port id="2" precision="FP32">
					<dim>1</dim>
					<dim>480</dim>
					<dim>14</dim>
					<dim>14</dim>
				</port>
			</output>
		</layer>
		<layer id="111" name="Reshape_1842" type="Const" version="opset1">
			<data element_type="f32" shape="1, 480, 1, 1" offset="833440" size="1920"/>
			<output>
				<port id="0" precision="FP32">
					<dim>1</dim>
					<dim>480</dim>
					<dim>1</dim>
					<dim>1</dim>
				</port>
			</output>
		</layer>
		<layer id="112" name="Conv__392" type="Add" version="opset1">
			<data auto_broadcast="numpy"/>
			<rt_info>
				<attribute name="fused_names" version="0" value="Concat_1841, Conv__392, Reshape_1842"/>
			</rt_info>
			<input>
				<port id="0" precision="FP32">
					<dim>1</dim>
					<dim>480</dim>
					<dim>14</dim>
					<dim>14</dim>
				</port>
				<port id="1" precision="FP32">
					<dim>1</dim>
					<dim>480</dim>
					<dim>1</dim>
					<dim>1</dim>
				</port>
			</input>
			<output>
				<port id="2" precision="FP32" names="Conv__392:0">
					<dim>1</dim>
					<dim>480</dim>
					<dim>14</dim>
					<dim>14</dim>
				</port>
			</output>
		</layer>
		<layer id="113" name="model_1/model/re_lu_14/Relu6_model_1/model/batch_normalization_21/FusedBatchNormV3_model_1/model/batch_normalization_25/FusedBatchNormV3_model_1/model/depthwise_conv2d_8/depthwise_model_1/model/conv2d_14/Conv2D" type="Clamp" version="opset1">
			<data min="0" max="6"/>
			<rt_info>
				<attribute name="fused_names" version="0" value="Maximum_1870, model_1/model/re_lu_14/Relu6_model_1/model/batch_normalization_21/FusedBatchNormV3_model_1/model/batch_normalization_25/FusedBatchNormV3_model_1/model/depthwise_conv2d_8/depthwise_model_1/model/conv2d_14/Conv2D"/>
			</rt_info>
			<input>
				<port id="0" precision="FP32">
					<dim>1</dim>
					<dim>480</dim>
					<dim>14</dim>
					<dim>14</dim>
				</port>
			</input>
			<output>
				<port id="1" precision="FP32" names="model_1/model/re_lu_14/Relu6_model_1/model/batch_normalization_21/FusedBatchNormV3_model_1/model/batch_normalization_25/FusedBatchNormV3_model_1/model/depthwise_conv2d_8/depthwise_model_1/model/conv2d_14/Conv2D:0">
					<dim>1</dim>
					<dim>480</dim>
					<dim>14</dim>
					<dim>14</dim>
				</port>
			</output>
		</layer>
		<layer id="114" name="Reshape_1879" type="Const" version="opset1">
			<data element_type="f32" shape="480, 1, 1, 3, 3" offset="835360" size="17280"/>
			<output>
				<port id="0" precision="FP32">
					<dim>480</dim>
					<dim>1</dim>
					<dim>1</dim>
					<dim>3</dim>
					<dim>3</dim>
				</port>
			</output>
		</layer>
		<layer id="115" name="Conv__393/WithoutBiases" type="GroupConvolution" version="opset1">
			<data strides="1, 1" pads_begin="1, 1" pads_end="1, 1" dilations="1, 1" auto_pad="explicit"/>
			<rt_info>
				<attribute name="fused_names" version="0" value="Conv__393/WithoutBiases, Reshape_1879"/>
			</rt_info>
			<input>
				<port id="0" precision="FP32">
					<dim>1</dim>
					<dim>480</dim>
					<dim>14</dim>
					<dim>14</dim>
				</port>
				<port id="1" precision="FP32">
					<dim>480</dim>
					<dim>1</dim>
					<dim>1</dim>
					<dim>3</dim>
					<dim>3</dim>
				</port>
			</input>
			<output>
				<port id="2" precision="FP32">
					<dim>1</dim>
					<dim>480</dim>
					<dim>14</dim>
					<dim>14</dim>
				</port>
			</output>
		</layer>
		<layer id="116" name="Reshape_1965" type="Const" version="opset1">
			<data element_type="f32" shape="1, 480, 1, 1" offset="852640" size="1920"/>
			<output>
				<port id="0" precision="FP32">
					<dim>1</dim>
					<dim>480</dim>
					<dim>1</dim>
					<dim>1</dim>
				</port>
			</output>
		</layer>
		<layer id="117" name="Conv__393" type="Add" version="opset1">
			<data auto_broadcast="numpy"/>
			<rt_info>
				<attribute name="fused_names" version="0" value="Concat_1964, Conv__393, Reshape_1965"/>
			</rt_info>
			<input>
				<port id="0" precision="FP32">
					<dim>1</dim>
					<dim>480</dim>
					<dim>14</dim>
					<dim>14</dim>
				</port>
				<port id="1" precision="FP32">
					<dim>1</dim>
					<dim>480</dim>
					<dim>1</dim>
					<dim>1</dim>
				</port>
			</input>
			<output>
				<port id="2" precision="FP32" names="Conv__393:0">
					<dim>1</dim>
					<dim>480</dim>
					<dim>14</dim>
					<dim>14</dim>
				</port>
			</output>
		</layer>
		<layer id="118" name="model_1/model/re_lu_15/Relu6_model_1/model/batch_normalization_22/FusedBatchNormV3_model_1/model/batch_normalization_25/FusedBatchNormV3_model_1/model/depthwise_conv2d_8/depthwise_model_1/model/depthwise_conv2d_7/depthwise" type="Clamp" version="opset1">
			<data min="0" max="6"/>
			<rt_info>
				<attribute name="fused_names" version="0" value="Maximum_1993, model_1/model/re_lu_15/Relu6_model_1/model/batch_normalization_22/FusedBatchNormV3_model_1/model/batch_normalization_25/FusedBatchNormV3_model_1/model/depthwise_conv2d_8/depthwise_model_1/model/depthwise_conv2d_7/depthwise"/>
			</rt_info>
			<input>
				<port id="0" precision="FP32">
					<dim>1</dim>
					<dim>480</dim>
					<dim>14</dim>
					<dim>14</dim>
				</port>
			</input>
			<output>
				<port id="1" precision="FP32" names="model_1/model/re_lu_15/Relu6_model_1/model/batch_normalization_22/FusedBatchNormV3_model_1/model/batch_normalization_25/FusedBatchNormV3_model_1/model/depthwise_conv2d_8/depthwise_model_1/model/depthwise_conv2d_7/depthwise:0">
					<dim>1</dim>
					<dim>480</dim>
					<dim>14</dim>
					<dim>14</dim>
				</port>
			</output>
		</layer>
		<layer id="119" name="Conv2D_16/filter:0" type="Const" version="opset1">
			<data element_type="f32" shape="80, 480, 1, 1" offset="854560" size="153600"/>
			<rt_info>
				<attribute name="fused_names" version="0" value="Conv2D_16/filter:0"/>
			</rt_info>
			<output>
				<port id="0" precision="FP32" names="Conv2D_16/filter:0">
					<dim>80</dim>
					<dim>480</dim>
					<dim>1</dim>
					<dim>1</dim>
				</port>
			</output>
		</layer>
		<layer id="120" name="Conv__394/WithoutBiases" type="Convolution" version="opset1">
			<data strides="1, 1" dilations="1, 1" pads_begin="0, 0" pads_end="0, 0" auto_pad="explicit"/>
			<rt_info>
				<attribute name="fused_names" version="0" value="Conv__394/WithoutBiases"/>
			</rt_info>
			<input>
				<port id="0" precision="FP32">
					<dim>1</dim>
					<dim>480</dim>
					<dim>14</dim>
					<dim>14</dim>
				</port>
				<port id="1" precision="FP32">
					<dim>80</dim>
					<dim>480</dim>
					<dim>1</dim>
					<dim>1</dim>
				</port>
			</input>
			<output>
				<port id="2" precision="FP32">
					<dim>1</dim>
					<dim>80</dim>
					<dim>14</dim>
					<dim>14</dim>
				</port>
			</output>
		</layer>
		<layer id="121" name="Reshape_2015" type="Const" version="opset1">
			<data element_type="f32" shape="1, 80, 1, 1" offset="1008160" size="320"/>
			<output>
				<port id="0" precision="FP32">
					<dim>1</dim>
					<dim>80</dim>
					<dim>1</dim>
					<dim>1</dim>
				</port>
			</output>
		</layer>
		<layer id="122" name="Conv__394" type="Add" version="opset1">
			<data auto_broadcast="numpy"/>
			<rt_info>
				<attribute name="fused_names" version="0" value="Concat_2014, Conv__394, Reshape_2015"/>
			</rt_info>
			<input>
				<port id="0" precision="FP32">
					<dim>1</dim>
					<dim>80</dim>
					<dim>14</dim>
					<dim>14</dim>
				</port>
				<port id="1" precision="FP32">
					<dim>1</dim>
					<dim>80</dim>
					<dim>1</dim>
					<dim>1</dim>
				</port>
			</input>
			<output>
				<port id="2" precision="FP32" names="Conv__394:0">
					<dim>1</dim>
					<dim>80</dim>
					<dim>14</dim>
					<dim>14</dim>
				</port>
			</output>
		</layer>
		<layer id="123" name="model_1/model/add_3/add" type="Add" version="opset1">
			<data auto_broadcast="numpy"/>
			<rt_info>
				<attribute name="fused_names" version="0" value="model_1/model/add_3/add"/>
			</rt_info>
			<input>
				<port id="0" precision="FP32">
					<dim>1</dim>
					<dim>80</dim>
					<dim>14</dim>
					<dim>14</dim>
				</port>
				<port id="1" precision="FP32">
					<dim>1</dim>
					<dim>80</dim>
					<dim>14</dim>
					<dim>14</dim>
				</port>
			</input>
			<output>
				<port id="2" precision="FP32" names="model_1/model/add_3/add:0">
					<dim>1</dim>
					<dim>80</dim>
					<dim>14</dim>
					<dim>14</dim>
				</port>
			</output>
		</layer>
		<layer id="124" name="Conv2D_17/filter:0" type="Const" version="opset1">
			<data element_type="f32" shape="480, 80, 1, 1" offset="1008480" size="153600"/>
			<rt_info>
				<attribute name="fused_names" version="0" value="Conv2D_17/filter:0"/>
			</rt_info>
			<output>
				<port id="0" precision="FP32" names="Conv2D_17/filter:0">
					<dim>480</dim>
					<dim>80</dim>
					<dim>1</dim>
					<dim>1</dim>
				</port>
			</output>
		</layer>
		<layer id="125" name="Conv__395/WithoutBiases" type="Convolution" version="opset1">
			<data strides="1, 1" dilations="1, 1" pads_begin="0, 0" pads_end="0, 0" auto_pad="explicit"/>
			<rt_info>
				<attribute name="fused_names" version="0" value="Conv__395/WithoutBiases"/>
			</rt_info>
			<input>
				<port id="0" precision="FP32">
					<dim>1</dim>
					<dim>80</dim>
					<dim>14</dim>
					<dim>14</dim>
				</port>
				<port id="1" precision="FP32">
					<dim>480</dim>
					<dim>80</dim>
					<dim>1</dim>
					<dim>1</dim>
				</port>
			</input>
			<output>
				<port id="2" precision="FP32">
					<dim>1</dim>
					<dim>480</dim>
					<dim>14</dim>
					<dim>14</dim>
				</port>
			</output>
		</layer>
		<layer id="126" name="Reshape_2064" type="Const" version="opset1">
			<data element_type="f32" shape="1, 480, 1, 1" offset="1162080" size="1920"/>
			<output>
				<port id="0" precision="FP32">
					<dim>1</dim>
					<dim>480</dim>
					<dim>1</dim>
					<dim>1</dim>
				</port>
			</output>
		</layer>
		<layer id="127" name="Conv__395" type="Add" version="opset1">
			<data auto_broadcast="numpy"/>
			<rt_info>
				<attribute name="fused_names" version="0" value="Concat_2063, Conv__395, Reshape_2064"/>
			</rt_info>
			<input>
				<port id="0" precision="FP32">
					<dim>1</dim>
					<dim>480</dim>
					<dim>14</dim>
					<dim>14</dim>
				</port>
				<port id="1" precision="FP32">
					<dim>1</dim>
					<dim>480</dim>
					<dim>1</dim>
					<dim>1</dim>
				</port>
			</input>
			<output>
				<port id="2" precision="FP32" names="Conv__395:0">
					<dim>1</dim>
					<dim>480</dim>
					<dim>14</dim>
					<dim>14</dim>
				</port>
			</output>
		</layer>
		<layer id="128" name="model_1/model/re_lu_16/Relu6_model_1/model/batch_normalization_24/FusedBatchNormV3_model_1/model/batch_normalization_25/FusedBatchNormV3_model_1/model/depthwise_conv2d_8/depthwise_model_1/model/conv2d_16/Conv2D" type="Clamp" version="opset1">
			<data min="0" max="6"/>
			<rt_info>
				<attribute name="fused_names" version="0" value="Maximum_2092, model_1/model/re_lu_16/Relu6_model_1/model/batch_normalization_24/FusedBatchNormV3_model_1/model/batch_normalization_25/FusedBatchNormV3_model_1/model/depthwise_conv2d_8/depthwise_model_1/model/conv2d_16/Conv2D"/>
			</rt_info>
			<input>
				<port id="0" precision="FP32">
					<dim>1</dim>
					<dim>480</dim>
					<dim>14</dim>
					<dim>14</dim>
				</port>
			</input>
			<output>
				<port id="1" precision="FP32" names="model_1/model/re_lu_16/Relu6_model_1/model/batch_normalization_24/FusedBatchNormV3_model_1/model/batch_normalization_25/FusedBatchNormV3_model_1/model/depthwise_conv2d_8/depthwise_model_1/model/conv2d_16/Conv2D:0">
					<dim>1</dim>
					<dim>480</dim>
					<dim>14</dim>
					<dim>14</dim>
				</port>
			</output>
		</layer>
		<layer id="129" name="Reshape_2101" type="Const" version="opset1">
			<data element_type="f32" shape="480, 1, 1, 5, 5" offset="1164000" size="48000"/>
			<output>
				<port id="0" precision="FP32">
					<dim>480</dim>
					<dim>1</dim>
					<dim>1</dim>
					<dim>5</dim>
					<dim>5</dim>
				</port>
			</output>
		</layer>
		<layer id="130" name="Conv__396/WithoutBiases" type="GroupConvolution" version="opset1">
			<data strides="1, 1" pads_begin="2, 2" pads_end="2, 2" dilations="1, 1" auto_pad="explicit"/>
			<rt_info>
				<attribute name="fused_names" version="0" value="Conv__396/WithoutBiases, Reshape_2101"/>
			</rt_info>
			<input>
				<port id="0" precision="FP32">
					<dim>1</dim>
					<dim>480</dim>
					<dim>14</dim>
					<dim>14</dim>
				</port>
				<port id="1" precision="FP32">
					<dim>480</dim>
					<dim>1</dim>
					<dim>1</dim>
					<dim>5</dim>
					<dim>5</dim>
				</port>
			</input>
			<output>
				<port id="2" precision="FP32">
					<dim>1</dim>
					<dim>480</dim>
					<dim>14</dim>
					<dim>14</dim>
				</port>
			</output>
		</layer>
		<layer id="131" name="Reshape_2187" type="Const" version="opset1">
			<data element_type="f32" shape="1, 480, 1, 1" offset="1212000" size="1920"/>
			<output>
				<port id="0" precision="FP32">
					<dim>1</dim>
					<dim>480</dim>
					<dim>1</dim>
					<dim>1</dim>
				</port>
			</output>
		</layer>
		<layer id="132" name="Conv__396" type="Add" version="opset1">
			<data auto_broadcast="numpy"/>
			<rt_info>
				<attribute name="fused_names" version="0" value="Concat_2186, Conv__396, Reshape_2187"/>
			</rt_info>
			<input>
				<port id="0" precision="FP32">
					<dim>1</dim>
					<dim>480</dim>
					<dim>14</dim>
					<dim>14</dim>
				</port>
				<port id="1" precision="FP32">
					<dim>1</dim>
					<dim>480</dim>
					<dim>1</dim>
					<dim>1</dim>
				</port>
			</input>
			<output>
				<port id="2" precision="FP32" names="Conv__396:0">
					<dim>1</dim>
					<dim>480</dim>
					<dim>14</dim>
					<dim>14</dim>
				</port>
			</output>
		</layer>
		<layer id="133" name="model_1/model/re_lu_17/Relu6_model_1/model/batch_normalization_25/FusedBatchNormV3_model_1/model/depthwise_conv2d_8/depthwise" type="Clamp" version="opset1">
			<data min="0" max="6"/>
			<rt_info>
				<attribute name="fused_names" version="0" value="Maximum_2215, model_1/model/re_lu_17/Relu6_model_1/model/batch_normalization_25/FusedBatchNormV3_model_1/model/depthwise_conv2d_8/depthwise"/>
			</rt_info>
			<input>
				<port id="0" precision="FP32">
					<dim>1</dim>
					<dim>480</dim>
					<dim>14</dim>
					<dim>14</dim>
				</port>
			</input>
			<output>
				<port id="1" precision="FP32" names="model_1/model/re_lu_17/Relu6_model_1/model/batch_normalization_25/FusedBatchNormV3_model_1/model/depthwise_conv2d_8/depthwise:0">
					<dim>1</dim>
					<dim>480</dim>
					<dim>14</dim>
					<dim>14</dim>
				</port>
			</output>
		</layer>
		<layer id="134" name="Conv2D_18/filter:0" type="Const" version="opset1">
			<data element_type="f32" shape="112, 480, 1, 1" offset="1213920" size="215040"/>
			<rt_info>
				<attribute name="fused_names" version="0" value="Conv2D_18/filter:0"/>
			</rt_info>
			<output>
				<port id="0" precision="FP32" names="Conv2D_18/filter:0">
					<dim>112</dim>
					<dim>480</dim>
					<dim>1</dim>
					<dim>1</dim>
				</port>
			</output>
		</layer>
		<layer id="135" name="Conv__397/WithoutBiases" type="Convolution" version="opset1">
			<data strides="1, 1" dilations="1, 1" pads_begin="0, 0" pads_end="0, 0" auto_pad="explicit"/>
			<rt_info>
				<attribute name="fused_names" version="0" value="Conv__397/WithoutBiases"/>
			</rt_info>
			<input>
				<port id="0" precision="FP32">
					<dim>1</dim>
					<dim>480</dim>
					<dim>14</dim>
					<dim>14</dim>
				</port>
				<port id="1" precision="FP32">
					<dim>112</dim>
					<dim>480</dim>
					<dim>1</dim>
					<dim>1</dim>
				</port>
			</input>
			<output>
				<port id="2" precision="FP32">
					<dim>1</dim>
					<dim>112</dim>
					<dim>14</dim>
					<dim>14</dim>
				</port>
			</output>
		</layer>
		<layer id="136" name="Reshape_2237" type="Const" version="opset1">
			<data element_type="f32" shape="1, 112, 1, 1" offset="1428960" size="448"/>
			<output>
				<port id="0" precision="FP32">
					<dim>1</dim>
					<dim>112</dim>
					<dim>1</dim>
					<dim>1</dim>
				</port>
			</output>
		</layer>
		<layer id="137" name="Conv__397" type="Add" version="opset1">
			<data auto_broadcast="numpy"/>
			<rt_info>
				<attribute name="fused_names" version="0" value="Concat_2236, Conv__397, Reshape_2237"/>
			</rt_info>
			<input>
				<port id="0" precision="FP32">
					<dim>1</dim>
					<dim>112</dim>
					<dim>14</dim>
					<dim>14</dim>
				</port>
				<port id="1" precision="FP32">
					<dim>1</dim>
					<dim>112</dim>
					<dim>1</dim>
					<dim>1</dim>
				</port>
			</input>
			<output>
				<port id="2" precision="FP32" names="Conv__397:0">
					<dim>1</dim>
					<dim>112</dim>
					<dim>14</dim>
					<dim>14</dim>
				</port>
			</output>
		</layer>
		<layer id="138" name="Conv2D_19/filter:0" type="Const" version="opset1">
			<data element_type="f32" shape="672, 112, 1, 1" offset="1429408" size="301056"/>
			<rt_info>
				<attribute name="fused_names" version="0" value="Conv2D_19/filter:0"/>
			</rt_info>
			<output>
				<port id="0" precision="FP32" names="Conv2D_19/filter:0">
					<dim>672</dim>
					<dim>112</dim>
					<dim>1</dim>
					<dim>1</dim>
				</port>
			</output>
		</layer>
		<layer id="139" name="Conv__400/WithoutBiases" type="Convolution" version="opset1">
			<data strides="1, 1" dilations="1, 1" pads_begin="0, 0" pads_end="0, 0" auto_pad="explicit"/>
			<rt_info>
				<attribute name="fused_names" version="0" value="Conv__400/WithoutBiases"/>
			</rt_info>
			<input>
				<port id="0" precision="FP32">
					<dim>1</dim>
					<dim>112</dim>
					<dim>14</dim>
					<dim>14</dim>
				</port>
				<port id="1" precision="FP32">
					<dim>672</dim>
					<dim>112</dim>
					<dim>1</dim>
					<dim>1</dim>
				</port>
			</input>
			<output>
				<port id="2" precision="FP32">
					<dim>1</dim>
					<dim>672</dim>
					<dim>14</dim>
					<dim>14</dim>
				</port>
			</output>
		</layer>
		<layer id="140" name="Reshape_2285" type="Const" version="opset1">
			<data element_type="f32" shape="1, 672, 1, 1" offset="1730464" size="2688"/>
			<output>
				<port id="0" precision="FP32">
					<dim>1</dim>
					<dim>672</dim>
					<dim>1</dim>
					<dim>1</dim>
				</port>
			</output>
		</layer>
		<layer id="141" name="Conv__400" type="Add" version="opset1">
			<data auto_broadcast="numpy"/>
			<rt_info>
				<attribute name="fused_names" version="0" value="Concat_2284, Conv__400, Reshape_2285"/>
			</rt_info>
			<input>
				<port id="0" precision="FP32">
					<dim>1</dim>
					<dim>672</dim>
					<dim>14</dim>
					<dim>14</dim>
				</port>
				<port id="1" precision="FP32">
					<dim>1</dim>
					<dim>672</dim>
					<dim>1</dim>
					<dim>1</dim>
				</port>
			</input>
			<output>
				<port id="2" precision="FP32" names="Conv__400:0">
					<dim>1</dim>
					<dim>672</dim>
					<dim>14</dim>
					<dim>14</dim>
				</port>
			</output>
		</layer>
		<layer id="142" name="model_1/model/re_lu_18/Relu6_model_1/model/batch_normalization_27/FusedBatchNormV3_model_1/model/batch_normalization_34/FusedBatchNormV3_model_1/model/depthwise_conv2d_11/depthwise_model_1/model/conv2d_18/Conv2D" type="Clamp" version="opset1">
			<data min="0" max="6"/>
			<rt_info>
				<attribute name="fused_names" version="0" value="Maximum_2313, model_1/model/re_lu_18/Relu6_model_1/model/batch_normalization_27/FusedBatchNormV3_model_1/model/batch_normalization_34/FusedBatchNormV3_model_1/model/depthwise_conv2d_11/depthwise_model_1/model/conv2d_18/Conv2D"/>
			</rt_info>
			<input>
				<port id="0" precision="FP32">
					<dim>1</dim>
					<dim>672</dim>
					<dim>14</dim>
					<dim>14</dim>
				</port>
			</input>
			<output>
				<port id="1" precision="FP32" names="model_1/model/re_lu_18/Relu6_model_1/model/batch_normalization_27/FusedBatchNormV3_model_1/model/batch_normalization_34/FusedBatchNormV3_model_1/model/depthwise_conv2d_11/depthwise_model_1/model/conv2d_18/Conv2D:0">
					<dim>1</dim>
					<dim>672</dim>
					<dim>14</dim>
					<dim>14</dim>
				</port>
			</output>
		</layer>
		<layer id="143" name="Reshape_2322" type="Const" version="opset1">
			<data element_type="f32" shape="672, 1, 1, 5, 5" offset="1733152" size="67200"/>
			<output>
				<port id="0" precision="FP32">
					<dim>672</dim>
					<dim>1</dim>
					<dim>1</dim>
					<dim>5</dim>
					<dim>5</dim>
				</port>
			</output>
		</layer>
		<layer id="144" name="Conv__401/WithoutBiases" type="GroupConvolution" version="opset1">
			<data strides="1, 1" pads_begin="2, 2" pads_end="2, 2" dilations="1, 1" auto_pad="explicit"/>
			<rt_info>
				<attribute name="fused_names" version="0" value="Conv__401/WithoutBiases, Reshape_2322"/>
			</rt_info>
			<input>
				<port id="0" precision="FP32">
					<dim>1</dim>
					<dim>672</dim>
					<dim>14</dim>
					<dim>14</dim>
				</port>
				<port id="1" precision="FP32">
					<dim>672</dim>
					<dim>1</dim>
					<dim>1</dim>
					<dim>5</dim>
					<dim>5</dim>
				</port>
			</input>
			<output>
				<port id="2" precision="FP32">
					<dim>1</dim>
					<dim>672</dim>
					<dim>14</dim>
					<dim>14</dim>
				</port>
			</output>
		</layer>
		<layer id="145" name="Reshape_2408" type="Const" version="opset1">
			<data element_type="f32" shape="1, 672, 1, 1" offset="1800352" size="2688"/>
			<output>
				<port id="0" precision="FP32">
					<dim>1</dim>
					<dim>672</dim>
					<dim>1</dim>
					<dim>1</dim>
				</port>
			</output>
		</layer>
		<layer id="146" name="Conv__401" type="Add" version="opset1">
			<data auto_broadcast="numpy"/>
			<rt_info>
				<attribute name="fused_names" version="0" value="Concat_2407, Conv__401, Reshape_2408"/>
			</rt_info>
			<input>
				<port id="0" precision="FP32">
					<dim>1</dim>
					<dim>672</dim>
					<dim>14</dim>
					<dim>14</dim>
				</port>
				<port id="1" precision="FP32">
					<dim>1</dim>
					<dim>672</dim>
					<dim>1</dim>
					<dim>1</dim>
				</port>
			</input>
			<output>
				<port id="2" precision="FP32" names="Conv__401:0">
					<dim>1</dim>
					<dim>672</dim>
					<dim>14</dim>
					<dim>14</dim>
				</port>
			</output>
		</layer>
		<layer id="147" name="model_1/model/re_lu_19/Relu6_model_1/model/batch_normalization_28/FusedBatchNormV3_model_1/model/batch_normalization_34/FusedBatchNormV3_model_1/model/depthwise_conv2d_11/depthwise_model_1/model/depthwise_conv2d_9/depthwise" type="Clamp" version="opset1">
			<data min="0" max="6"/>
			<rt_info>
				<attribute name="fused_names" version="0" value="Maximum_2436, model_1/model/re_lu_19/Relu6_model_1/model/batch_normalization_28/FusedBatchNormV3_model_1/model/batch_normalization_34/FusedBatchNormV3_model_1/model/depthwise_conv2d_11/depthwise_model_1/model/depthwise_conv2d_9/depthwise"/>
			</rt_info>
			<input>
				<port id="0" precision="FP32">
					<dim>1</dim>
					<dim>672</dim>
					<dim>14</dim>
					<dim>14</dim>
				</port>
			</input>
			<output>
				<port id="1" precision="FP32" names="model_1/model/re_lu_19/Relu6_model_1/model/batch_normalization_28/FusedBatchNormV3_model_1/model/batch_normalization_34/FusedBatchNormV3_model_1/model/depthwise_conv2d_11/depthwise_model_1/model/depthwise_conv2d_9/depthwise:0">
					<dim>1</dim>
					<dim>672</dim>
					<dim>14</dim>
					<dim>14</dim>
				</port>
			</output>
		</layer>
		<layer id="148" name="Conv2D_20/filter:0" type="Const" version="opset1">
			<data element_type="f32" shape="112, 672, 1, 1" offset="1803040" size="301056"/>
			<rt_info>
				<attribute name="fused_names" version="0" value="Conv2D_20/filter:0"/>
			</rt_info>
			<output>
				<port id="0" precision="FP32" names="Conv2D_20/filter:0">
					<dim>112</dim>
					<dim>672</dim>
					<dim>1</dim>
					<dim>1</dim>
				</port>
			</output>
		</layer>
		<layer id="149" name="Conv__402/WithoutBiases" type="Convolution" version="opset1">
			<data strides="1, 1" dilations="1, 1" pads_begin="0, 0" pads_end="0, 0" auto_pad="explicit"/>
			<rt_info>
				<attribute name="fused_names" version="0" value="Conv__402/WithoutBiases"/>
			</rt_info>
			<input>
				<port id="0" precision="FP32">
					<dim>1</dim>
					<dim>672</dim>
					<dim>14</dim>
					<dim>14</dim>
				</port>
				<port id="1" precision="FP32">
					<dim>112</dim>
					<dim>672</dim>
					<dim>1</dim>
					<dim>1</dim>
				</port>
			</input>
			<output>
				<port id="2" precision="FP32">
					<dim>1</dim>
					<dim>112</dim>
					<dim>14</dim>
					<dim>14</dim>
				</port>
			</output>
		</layer>
		<layer id="150" name="Reshape_2458" type="Const" version="opset1">
			<data element_type="f32" shape="1, 112, 1, 1" offset="2104096" size="448"/>
			<output>
				<port id="0" precision="FP32">
					<dim>1</dim>
					<dim>112</dim>
					<dim>1</dim>
					<dim>1</dim>
				</port>
			</output>
		</layer>
		<layer id="151" name="Conv__402" type="Add" version="opset1">
			<data auto_broadcast="numpy"/>
			<rt_info>
				<attribute name="fused_names" version="0" value="Concat_2457, Conv__402, Reshape_2458"/>
			</rt_info>
			<input>
				<port id="0" precision="FP32">
					<dim>1</dim>
					<dim>112</dim>
					<dim>14</dim>
					<dim>14</dim>
				</port>
				<port id="1" precision="FP32">
					<dim>1</dim>
					<dim>112</dim>
					<dim>1</dim>
					<dim>1</dim>
				</port>
			</input>
			<output>
				<port id="2" precision="FP32" names="Conv__402:0">
					<dim>1</dim>
					<dim>112</dim>
					<dim>14</dim>
					<dim>14</dim>
				</port>
			</output>
		</layer>
		<layer id="152" name="model_1/model/add_4/add" type="Add" version="opset1">
			<data auto_broadcast="numpy"/>
			<rt_info>
				<attribute name="fused_names" version="0" value="model_1/model/add_4/add"/>
			</rt_info>
			<input>
				<port id="0" precision="FP32">
					<dim>1</dim>
					<dim>112</dim>
					<dim>14</dim>
					<dim>14</dim>
				</port>
				<port id="1" precision="FP32">
					<dim>1</dim>
					<dim>112</dim>
					<dim>14</dim>
					<dim>14</dim>
				</port>
			</input>
			<output>
				<port id="2" precision="FP32" names="model_1/model/add_4/add:0">
					<dim>1</dim>
					<dim>112</dim>
					<dim>14</dim>
					<dim>14</dim>
				</port>
			</output>
		</layer>
		<layer id="153" name="Conv2D_21/filter:0" type="Const" version="opset1">
			<data element_type="f32" shape="672, 112, 1, 1" offset="2104544" size="301056"/>
			<rt_info>
				<attribute name="fused_names" version="0" value="Conv2D_21/filter:0"/>
			</rt_info>
			<output>
				<port id="0" precision="FP32" names="Conv2D_21/filter:0">
					<dim>672</dim>
					<dim>112</dim>
					<dim>1</dim>
					<dim>1</dim>
				</port>
			</output>
		</layer>
		<layer id="154" name="Conv__405/WithoutBiases" type="Convolution" version="opset1">
			<data strides="1, 1" dilations="1, 1" pads_begin="0, 0" pads_end="0, 0" auto_pad="explicit"/>
			<rt_info>
				<attribute name="fused_names" version="0" value="Conv__405/WithoutBiases"/>
			</rt_info>
			<input>
				<port id="0" precision="FP32">
					<dim>1</dim>
					<dim>112</dim>
					<dim>14</dim>
					<dim>14</dim>
				</port>
				<port id="1" precision="FP32">
					<dim>672</dim>
					<dim>112</dim>
					<dim>1</dim>
					<dim>1</dim>
				</port>
			</input>
			<output>
				<port id="2" precision="FP32">
					<dim>1</dim>
					<dim>672</dim>
					<dim>14</dim>
					<dim>14</dim>
				</port>
			</output>
		</layer>
		<layer id="155" name="Reshape_2507" type="Const" version="opset1">
			<data element_type="f32" shape="1, 672, 1, 1" offset="2405600" size="2688"/>
			<output>
				<port id="0" precision="FP32">
					<dim>1</dim>
					<dim>672</dim>
					<dim>1</dim>
					<dim>1</dim>
				</port>
			</output>
		</layer>
		<layer id="156" name="Conv__405" type="Add" version="opset1">
			<data auto_broadcast="numpy"/>
			<rt_info>
				<attribute name="fused_names" version="0" value="Concat_2506, Conv__405, Reshape_2507"/>
			</rt_info>
			<input>
				<port id="0" precision="FP32">
					<dim>1</dim>
					<dim>672</dim>
					<dim>14</dim>
					<dim>14</dim>
				</port>
				<port id="1" precision="FP32">
					<dim>1</dim>
					<dim>672</dim>
					<dim>1</dim>
					<dim>1</dim>
				</port>
			</input>
			<output>
				<port id="2" precision="FP32" names="Conv__405:0">
					<dim>1</dim>
					<dim>672</dim>
					<dim>14</dim>
					<dim>14</dim>
				</port>
			</output>
		</layer>
		<layer id="157" name="model_1/model/re_lu_20/Relu6_model_1/model/batch_normalization_30/FusedBatchNormV3_model_1/model/batch_normalization_34/FusedBatchNormV3_model_1/model/depthwise_conv2d_11/depthwise_model_1/model/conv2d_20/Conv2D" type="Clamp" version="opset1">
			<data min="0" max="6"/>
			<rt_info>
				<attribute name="fused_names" version="0" value="Maximum_2535, model_1/model/re_lu_20/Relu6_model_1/model/batch_normalization_30/FusedBatchNormV3_model_1/model/batch_normalization_34/FusedBatchNormV3_model_1/model/depthwise_conv2d_11/depthwise_model_1/model/conv2d_20/Conv2D"/>
			</rt_info>
			<input>
				<port id="0" precision="FP32">
					<dim>1</dim>
					<dim>672</dim>
					<dim>14</dim>
					<dim>14</dim>
				</port>
			</input>
			<output>
				<port id="1" precision="FP32" names="model_1/model/re_lu_20/Relu6_model_1/model/batch_normalization_30/FusedBatchNormV3_model_1/model/batch_normalization_34/FusedBatchNormV3_model_1/model/depthwise_conv2d_11/depthwise_model_1/model/conv2d_20/Conv2D:0">
					<dim>1</dim>
					<dim>672</dim>
					<dim>14</dim>
					<dim>14</dim>
				</port>
			</output>
		</layer>
		<layer id="158" name="Reshape_2544" type="Const" version="opset1">
			<data element_type="f32" shape="672, 1, 1, 5, 5" offset="2408288" size="67200"/>
			<output>
				<port id="0" precision="FP32">
					<dim>672</dim>
					<dim>1</dim>
					<dim>1</dim>
					<dim>5</dim>
					<dim>5</dim>
				</port>
			</output>
		</layer>
		<layer id="159" name="Conv__406/WithoutBiases" type="GroupConvolution" version="opset1">
			<data strides="1, 1" pads_begin="2, 2" pads_end="2, 2" dilations="1, 1" auto_pad="explicit"/>
			<rt_info>
				<attribute name="fused_names" version="0" value="Conv__406/WithoutBiases, Reshape_2544"/>
			</rt_info>
			<input>
				<port id="0" precision="FP32">
					<dim>1</dim>
					<dim>672</dim>
					<dim>14</dim>
					<dim>14</dim>
				</port>
				<port id="1" precision="FP32">
					<dim>672</dim>
					<dim>1</dim>
					<dim>1</dim>
					<dim>5</dim>
					<dim>5</dim>
				</port>
			</input>
			<output>
				<port id="2" precision="FP32">
					<dim>1</dim>
					<dim>672</dim>
					<dim>14</dim>
					<dim>14</dim>
				</port>
			</output>
		</layer>
		<layer id="160" name="Reshape_2630" type="Const" version="opset1">
			<data element_type="f32" shape="1, 672, 1, 1" offset="2475488" size="2688"/>
			<output>
				<port id="0" precision="FP32">
					<dim>1</dim>
					<dim>672</dim>
					<dim>1</dim>
					<dim>1</dim>
				</port>
			</output>
		</layer>
		<layer id="161" name="Conv__406" type="Add" version="opset1">
			<data auto_broadcast="numpy"/>
			<rt_info>
				<attribute name="fused_names" version="0" value="Concat_2629, Conv__406, Reshape_2630"/>
			</rt_info>
			<input>
				<port id="0" precision="FP32">
					<dim>1</dim>
					<dim>672</dim>
					<dim>14</dim>
					<dim>14</dim>
				</port>
				<port id="1" precision="FP32">
					<dim>1</dim>
					<dim>672</dim>
					<dim>1</dim>
					<dim>1</dim>
				</port>
			</input>
			<output>
				<port id="2" precision="FP32" names="Conv__406:0">
					<dim>1</dim>
					<dim>672</dim>
					<dim>14</dim>
					<dim>14</dim>
				</port>
			</output>
		</layer>
		<layer id="162" name="model_1/model/re_lu_21/Relu6_model_1/model/batch_normalization_31/FusedBatchNormV3_model_1/model/batch_normalization_34/FusedBatchNormV3_model_1/model/depthwise_conv2d_11/depthwise_model_1/model/depthwise_conv2d_10/depthwise" type="Clamp" version="opset1">
			<data min="0" max="6"/>
			<rt_info>
				<attribute name="fused_names" version="0" value="Maximum_2658, model_1/model/re_lu_21/Relu6_model_1/model/batch_normalization_31/FusedBatchNormV3_model_1/model/batch_normalization_34/FusedBatchNormV3_model_1/model/depthwise_conv2d_11/depthwise_model_1/model/depthwise_conv2d_10/depthwise"/>
			</rt_info>
			<input>
				<port id="0" precision="FP32">
					<dim>1</dim>
					<dim>672</dim>
					<dim>14</dim>
					<dim>14</dim>
				</port>
			</input>
			<output>
				<port id="1" precision="FP32" names="model_1/model/re_lu_21/Relu6_model_1/model/batch_normalization_31/FusedBatchNormV3_model_1/model/batch_normalization_34/FusedBatchNormV3_model_1/model/depthwise_conv2d_11/depthwise_model_1/model/depthwise_conv2d_10/depthwise:0">
					<dim>1</dim>
					<dim>672</dim>
					<dim>14</dim>
					<dim>14</dim>
				</port>
			</output>
		</layer>
		<layer id="163" name="Conv2D_22/filter:0" type="Const" version="opset1">
			<data element_type="f32" shape="112, 672, 1, 1" offset="2478176" size="301056"/>
			<rt_info>
				<attribute name="fused_names" version="0" value="Conv2D_22/filter:0"/>
			</rt_info>
			<output>
				<port id="0" precision="FP32" names="Conv2D_22/filter:0">
					<dim>112</dim>
					<dim>672</dim>
					<dim>1</dim>
					<dim>1</dim>
				</port>
			</output>
		</layer>
		<layer id="164" name="Conv__407/WithoutBiases" type="Convolution" version="opset1">
			<data strides="1, 1" dilations="1, 1" pads_begin="0, 0" pads_end="0, 0" auto_pad="explicit"/>
			<rt_info>
				<attribute name="fused_names" version="0" value="Conv__407/WithoutBiases"/>
			</rt_info>
			<input>
				<port id="0" precision="FP32">
					<dim>1</dim>
					<dim>672</dim>
					<dim>14</dim>
					<dim>14</dim>
				</port>
				<port id="1" precision="FP32">
					<dim>112</dim>
					<dim>672</dim>
					<dim>1</dim>
					<dim>1</dim>
				</port>
			</input>
			<output>
				<port id="2" precision="FP32">
					<dim>1</dim>
					<dim>112</dim>
					<dim>14</dim>
					<dim>14</dim>
				</port>
			</output>
		</layer>
		<layer id="165" name="Reshape_2680" type="Const" version="opset1">
			<data element_type="f32" shape="1, 112, 1, 1" offset="2779232" size="448"/>
			<output>
				<port id="0" precision="FP32">
					<dim>1</dim>
					<dim>112</dim>
					<dim>1</dim>
					<dim>1</dim>
				</port>
			</output>
		</layer>
		<layer id="166" name="Conv__407" type="Add" version="opset1">
			<data auto_broadcast="numpy"/>
			<rt_info>
				<attribute name="fused_names" version="0" value="Concat_2679, Conv__407, Reshape_2680"/>
			</rt_info>
			<input>
				<port id="0" precision="FP32">
					<dim>1</dim>
					<dim>112</dim>
					<dim>14</dim>
					<dim>14</dim>
				</port>
				<port id="1" precision="FP32">
					<dim>1</dim>
					<dim>112</dim>
					<dim>1</dim>
					<dim>1</dim>
				</port>
			</input>
			<output>
				<port id="2" precision="FP32" names="Conv__407:0">
					<dim>1</dim>
					<dim>112</dim>
					<dim>14</dim>
					<dim>14</dim>
				</port>
			</output>
		</layer>
		<layer id="167" name="model_1/model/add_5/add" type="Add" version="opset1">
			<data auto_broadcast="numpy"/>
			<rt_info>
				<attribute name="fused_names" version="0" value="model_1/model/add_5/add"/>
			</rt_info>
			<input>
				<port id="0" precision="FP32">
					<dim>1</dim>
					<dim>112</dim>
					<dim>14</dim>
					<dim>14</dim>
				</port>
				<port id="1" precision="FP32">
					<dim>1</dim>
					<dim>112</dim>
					<dim>14</dim>
					<dim>14</dim>
				</port>
			</input>
			<output>
				<port id="2" precision="FP32" names="model_1/model/add_5/add:0">
					<dim>1</dim>
					<dim>112</dim>
					<dim>14</dim>
					<dim>14</dim>
				</port>
			</output>
		</layer>
		<layer id="168" name="Reshape_2717" type="Const" version="opset1">
			<data element_type="f32" shape="112, 1, 1, 3, 3" offset="2779680" size="4032"/>
			<output>
				<port id="0" precision="FP32">
					<dim>112</dim>
					<dim>1</dim>
					<dim>1</dim>
					<dim>3</dim>
					<dim>3</dim>
				</port>
			</output>
		</layer>
		<layer id="169" name="depthwise_12" type="GroupConvolution" version="opset1">
			<data strides="1, 1" pads_begin="1, 1" pads_end="1, 1" dilations="1, 1" auto_pad="explicit"/>
			<rt_info>
				<attribute name="fused_names" version="0" value="Reshape_2717, depthwise_12"/>
			</rt_info>
			<input>
				<port id="0" precision="FP32">
					<dim>1</dim>
					<dim>112</dim>
					<dim>14</dim>
					<dim>14</dim>
				</port>
				<port id="1" precision="FP32">
					<dim>112</dim>
					<dim>1</dim>
					<dim>1</dim>
					<dim>3</dim>
					<dim>3</dim>
				</port>
			</input>
			<output>
				<port id="2" precision="FP32" names="depthwise_12:0">
					<dim>1</dim>
					<dim>112</dim>
					<dim>14</dim>
					<dim>14</dim>
				</port>
			</output>
		</layer>
		<layer id="170" name="Conv2D_24/filter:0" type="Const" version="opset1">
			<data element_type="f32" shape="192, 112, 1, 1" offset="2783712" size="86016"/>
			<rt_info>
				<attribute name="fused_names" version="0" value="Conv2D_24/filter:0"/>
			</rt_info>
			<output>
				<port id="0" precision="FP32" names="Conv2D_24/filter:0">
					<dim>192</dim>
					<dim>112</dim>
					<dim>1</dim>
					<dim>1</dim>
				</port>
			</output>
		</layer>
		<layer id="171" name="Conv__408/WithoutBiases" type="Convolution" version="opset1">
			<data strides="1, 1" dilations="1, 1" pads_begin="0, 0" pads_end="0, 0" auto_pad="explicit"/>
			<rt_info>
				<attribute name="fused_names" version="0" value="Conv__408/WithoutBiases"/>
			</rt_info>
			<input>
				<port id="0" precision="FP32">
					<dim>1</dim>
					<dim>112</dim>
					<dim>14</dim>
					<dim>14</dim>
				</port>
				<port id="1" precision="FP32">
					<dim>192</dim>
					<dim>112</dim>
					<dim>1</dim>
					<dim>1</dim>
				</port>
			</input>
			<output>
				<port id="2" precision="FP32">
					<dim>1</dim>
					<dim>192</dim>
					<dim>14</dim>
					<dim>14</dim>
				</port>
			</output>
		</layer>
		<layer id="172" name="Reshape_2804" type="Const" version="opset1">
			<data element_type="f32" shape="1, 192, 1, 1" offset="2869728" size="768"/>
			<output>
				<port id="0" precision="FP32">
					<dim>1</dim>
					<dim>192</dim>
					<dim>1</dim>
					<dim>1</dim>
				</port>
			</output>
		</layer>
		<layer id="173" name="Conv__408" type="Add" version="opset1">
			<data auto_broadcast="numpy"/>
			<rt_info>
				<attribute name="fused_names" version="0" value="Concat_2803, Conv__408, Reshape_2804"/>
			</rt_info>
			<input>
				<port id="0" precision="FP32">
					<dim>1</dim>
					<dim>192</dim>
					<dim>14</dim>
					<dim>14</dim>
				</port>
				<port id="1" precision="FP32">
					<dim>1</dim>
					<dim>192</dim>
					<dim>1</dim>
					<dim>1</dim>
				</port>
			</input>
			<output>
				<port id="2" precision="FP32" names="Conv__408:0">
					<dim>1</dim>
					<dim>192</dim>
					<dim>14</dim>
					<dim>14</dim>
				</port>
			</output>
		</layer>
		<layer id="174" name="model_1/model/activation_1/Relu6_model_1/model/batch_normalization_48/FusedBatchNormV3_model_1/model/conv2d_34/Conv2D_model_1/model/conv2d_32/Conv2D" type="Clamp" version="opset1">
			<data min="0" max="6"/>
			<rt_info>
				<attribute name="fused_names" version="0" value="Maximum_2832, model_1/model/activation_1/Relu6_model_1/model/batch_normalization_48/FusedBatchNormV3_model_1/model/conv2d_34/Conv2D_model_1/model/conv2d_32/Conv2D"/>
			</rt_info>
			<input>
				<port id="0" precision="FP32">
					<dim>1</dim>
					<dim>192</dim>
					<dim>14</dim>
					<dim>14</dim>
				</port>
			</input>
			<output>
				<port id="1" precision="FP32" names="model_1/model/activation_1/Relu6_model_1/model/batch_normalization_48/FusedBatchNormV3_model_1/model/conv2d_34/Conv2D_model_1/model/conv2d_32/Conv2D:0">
					<dim>1</dim>
					<dim>192</dim>
					<dim>14</dim>
					<dim>14</dim>
				</port>
			</output>
		</layer>
		<layer id="175" name="Conv2D_23/filter:0" type="Const" version="opset1">
			<data element_type="f32" shape="672, 112, 1, 1" offset="2870496" size="301056"/>
			<rt_info>
				<attribute name="fused_names" version="0" value="Conv2D_23/filter:0"/>
			</rt_info>
			<output>
				<port id="0" precision="FP32" names="Conv2D_23/filter:0">
					<dim>672</dim>
					<dim>112</dim>
					<dim>1</dim>
					<dim>1</dim>
				</port>
			</output>
		</layer>
		<layer id="176" name="Conv__413/WithoutBiases" type="Convolution" version="opset1">
			<data strides="1, 1" dilations="1, 1" pads_begin="0, 0" pads_end="0, 0" auto_pad="explicit"/>
			<rt_info>
				<attribute name="fused_names" version="0" value="Conv__413/WithoutBiases"/>
			</rt_info>
			<input>
				<port id="0" precision="FP32">
					<dim>1</dim>
					<dim>112</dim>
					<dim>14</dim>
					<dim>14</dim>
				</port>
				<port id="1" precision="FP32">
					<dim>672</dim>
					<dim>112</dim>
					<dim>1</dim>
					<dim>1</dim>
				</port>
			</input>
			<output>
				<port id="2" precision="FP32">
					<dim>1</dim>
					<dim>672</dim>
					<dim>14</dim>
					<dim>14</dim>
				</port>
			</output>
		</layer>
		<layer id="177" name="Reshape_2854" type="Const" version="opset1">
			<data element_type="f32" shape="1, 672, 1, 1" offset="3171552" size="2688"/>
			<output>
				<port id="0" precision="FP32">
					<dim>1</dim>
					<dim>672</dim>
					<dim>1</dim>
					<dim>1</dim>
				</port>
			</output>
		</layer>
		<layer id="178" name="Conv__413" type="Add" version="opset1">
			<data auto_broadcast="numpy"/>
			<rt_info>
				<attribute name="fused_names" version="0" value="Concat_2853, Conv__413, Reshape_2854"/>
			</rt_info>
			<input>
				<port id="0" precision="FP32">
					<dim>1</dim>
					<dim>672</dim>
					<dim>14</dim>
					<dim>14</dim>
				</port>
				<port id="1" precision="FP32">
					<dim>1</dim>
					<dim>672</dim>
					<dim>1</dim>
					<dim>1</dim>
				</port>
			</input>
			<output>
				<port id="2" precision="FP32" names="Conv__413:0">
					<dim>1</dim>
					<dim>672</dim>
					<dim>14</dim>
					<dim>14</dim>
				</port>
			</output>
		</layer>
		<layer id="179" name="model_1/model/re_lu_22/Relu6_model_1/model/batch_normalization_33/FusedBatchNormV3_model_1/model/batch_normalization_34/FusedBatchNormV3_model_1/model/depthwise_conv2d_11/depthwise_model_1/model/conv2d_22/Conv2D" type="Clamp" version="opset1">
			<data min="0" max="6"/>
			<rt_info>
				<attribute name="fused_names" version="0" value="Maximum_2882, model_1/model/re_lu_22/Relu6_model_1/model/batch_normalization_33/FusedBatchNormV3_model_1/model/batch_normalization_34/FusedBatchNormV3_model_1/model/depthwise_conv2d_11/depthwise_model_1/model/conv2d_22/Conv2D"/>
			</rt_info>
			<input>
				<port id="0" precision="FP32">
					<dim>1</dim>
					<dim>672</dim>
					<dim>14</dim>
					<dim>14</dim>
				</port>
			</input>
			<output>
				<port id="1" precision="FP32" names="model_1/model/re_lu_22/Relu6_model_1/model/batch_normalization_33/FusedBatchNormV3_model_1/model/batch_normalization_34/FusedBatchNormV3_model_1/model/depthwise_conv2d_11/depthwise_model_1/model/conv2d_22/Conv2D:0">
					<dim>1</dim>
					<dim>672</dim>
					<dim>14</dim>
					<dim>14</dim>
				</port>
			</output>
		</layer>
		<layer id="180" name="Reshape_2891" type="Const" version="opset1">
			<data element_type="f32" shape="672, 1, 1, 5, 5" offset="3174240" size="67200"/>
			<output>
				<port id="0" precision="FP32">
					<dim>672</dim>
					<dim>1</dim>
					<dim>1</dim>
					<dim>5</dim>
					<dim>5</dim>
				</port>
			</output>
		</layer>
		<layer id="181" name="Conv__414/WithoutBiases" type="GroupConvolution" version="opset1">
			<data strides="2, 2" pads_begin="2, 2" pads_end="2, 2" dilations="1, 1" auto_pad="explicit"/>
			<rt_info>
				<attribute name="fused_names" version="0" value="Conv__414/WithoutBiases, Reshape_2891"/>
			</rt_info>
			<input>
				<port id="0" precision="FP32">
					<dim>1</dim>
					<dim>672</dim>
					<dim>14</dim>
					<dim>14</dim>
				</port>
				<port id="1" precision="FP32">
					<dim>672</dim>
					<dim>1</dim>
					<dim>1</dim>
					<dim>5</dim>
					<dim>5</dim>
				</port>
			</input>
			<output>
				<port id="2" precision="FP32">
					<dim>1</dim>
					<dim>672</dim>
					<dim>7</dim>
					<dim>7</dim>
				</port>
			</output>
		</layer>
		<layer id="182" name="Reshape_2977" type="Const" version="opset1">
			<data element_type="f32" shape="1, 672, 1, 1" offset="3241440" size="2688"/>
			<output>
				<port id="0" precision="FP32">
					<dim>1</dim>
					<dim>672</dim>
					<dim>1</dim>
					<dim>1</dim>
				</port>
			</output>
		</layer>
		<layer id="183" name="Conv__414" type="Add" version="opset1">
			<data auto_broadcast="numpy"/>
			<rt_info>
				<attribute name="fused_names" version="0" value="Concat_2976, Conv__414, Reshape_2977"/>
			</rt_info>
			<input>
				<port id="0" precision="FP32">
					<dim>1</dim>
					<dim>672</dim>
					<dim>7</dim>
					<dim>7</dim>
				</port>
				<port id="1" precision="FP32">
					<dim>1</dim>
					<dim>672</dim>
					<dim>1</dim>
					<dim>1</dim>
				</port>
			</input>
			<output>
				<port id="2" precision="FP32" names="Conv__414:0">
					<dim>1</dim>
					<dim>672</dim>
					<dim>7</dim>
					<dim>7</dim>
				</port>
			</output>
		</layer>
		<layer id="184" name="model_1/model/re_lu_23/Relu6_model_1/model/batch_normalization_34/FusedBatchNormV3_model_1/model/depthwise_conv2d_11/depthwise" type="Clamp" version="opset1">
			<data min="0" max="6"/>
			<rt_info>
				<attribute name="fused_names" version="0" value="Maximum_3005, model_1/model/re_lu_23/Relu6_model_1/model/batch_normalization_34/FusedBatchNormV3_model_1/model/depthwise_conv2d_11/depthwise"/>
			</rt_info>
			<input>
				<port id="0" precision="FP32">
					<dim>1</dim>
					<dim>672</dim>
					<dim>7</dim>
					<dim>7</dim>
				</port>
			</input>
			<output>
				<port id="1" precision="FP32" names="model_1/model/re_lu_23/Relu6_model_1/model/batch_normalization_34/FusedBatchNormV3_model_1/model/depthwise_conv2d_11/depthwise:0">
					<dim>1</dim>
					<dim>672</dim>
					<dim>7</dim>
					<dim>7</dim>
				</port>
			</output>
		</layer>
		<layer id="185" name="Conv2D_25/filter:0" type="Const" version="opset1">
			<data element_type="f32" shape="192, 672, 1, 1" offset="3244128" size="516096"/>
			<rt_info>
				<attribute name="fused_names" version="0" value="Conv2D_25/filter:0"/>
			</rt_info>
			<output>
				<port id="0" precision="FP32" names="Conv2D_25/filter:0">
					<dim>192</dim>
					<dim>672</dim>
					<dim>1</dim>
					<dim>1</dim>
				</port>
			</output>
		</layer>
		<layer id="186" name="Conv__415/WithoutBiases" type="Convolution" version="opset1">
			<data strides="1, 1" dilations="1, 1" pads_begin="0, 0" pads_end="0, 0" auto_pad="explicit"/>
			<rt_info>
				<attribute name="fused_names" version="0" value="Conv__415/WithoutBiases"/>
			</rt_info>
			<input>
				<port id="0" precision="FP32">
					<dim>1</dim>
					<dim>672</dim>
					<dim>7</dim>
					<dim>7</dim>
				</port>
				<port id="1" precision="FP32">
					<dim>192</dim>
					<dim>672</dim>
					<dim>1</dim>
					<dim>1</dim>
				</port>
			</input>
			<output>
				<port id="2" precision="FP32">
					<dim>1</dim>
					<dim>192</dim>
					<dim>7</dim>
					<dim>7</dim>
				</port>
			</output>
		</layer>
		<layer id="187" name="Reshape_3027" type="Const" version="opset1">
			<data element_type="f32" shape="1, 192, 1, 1" offset="3760224" size="768"/>
			<output>
				<port id="0" precision="FP32">
					<dim>1</dim>
					<dim>192</dim>
					<dim>1</dim>
					<dim>1</dim>
				</port>
			</output>
		</layer>
		<layer id="188" name="Conv__415" type="Add" version="opset1">
			<data auto_broadcast="numpy"/>
			<rt_info>
				<attribute name="fused_names" version="0" value="Concat_3026, Conv__415, Reshape_3027"/>
			</rt_info>
			<input>
				<port id="0" precision="FP32">
					<dim>1</dim>
					<dim>192</dim>
					<dim>7</dim>
					<dim>7</dim>
				</port>
				<port id="1" precision="FP32">
					<dim>1</dim>
					<dim>192</dim>
					<dim>1</dim>
					<dim>1</dim>
				</port>
			</input>
			<output>
				<port id="2" precision="FP32" names="Conv__415:0">
					<dim>1</dim>
					<dim>192</dim>
					<dim>7</dim>
					<dim>7</dim>
				</port>
			</output>
		</layer>
		<layer id="189" name="Conv2D_26/filter:0" type="Const" version="opset1">
			<data element_type="f32" shape="1152, 192, 1, 1" offset="3760992" size="884736"/>
			<rt_info>
				<attribute name="fused_names" version="0" value="Conv2D_26/filter:0"/>
			</rt_info>
			<output>
				<port id="0" precision="FP32" names="Conv2D_26/filter:0">
					<dim>1152</dim>
					<dim>192</dim>
					<dim>1</dim>
					<dim>1</dim>
				</port>
			</output>
		</layer>
		<layer id="190" name="Conv__418/WithoutBiases" type="Convolution" version="opset1">
			<data strides="1, 1" dilations="1, 1" pads_begin="0, 0" pads_end="0, 0" auto_pad="explicit"/>
			<rt_info>
				<attribute name="fused_names" version="0" value="Conv__418/WithoutBiases"/>
			</rt_info>
			<input>
				<port id="0" precision="FP32">
					<dim>1</dim>
					<dim>192</dim>
					<dim>7</dim>
					<dim>7</dim>
				</port>
				<port id="1" precision="FP32">
					<dim>1152</dim>
					<dim>192</dim>
					<dim>1</dim>
					<dim>1</dim>
				</port>
			</input>
			<output>
				<port id="2" precision="FP32">
					<dim>1</dim>
					<dim>1152</dim>
					<dim>7</dim>
					<dim>7</dim>
				</port>
			</output>
		</layer>
		<layer id="191" name="Reshape_3075" type="Const" version="opset1">
			<data element_type="f32" shape="1, 1152, 1, 1" offset="4645728" size="4608"/>
			<output>
				<port id="0" precision="FP32">
					<dim>1</dim>
					<dim>1152</dim>
					<dim>1</dim>
					<dim>1</dim>
				</port>
			</output>
		</layer>
		<layer id="192" name="Conv__418" type="Add" version="opset1">
			<data auto_broadcast="numpy"/>
			<rt_info>
				<attribute name="fused_names" version="0" value="Concat_3074, Conv__418, Reshape_3075"/>
			</rt_info>
			<input>
				<port id="0" precision="FP32">
					<dim>1</dim>
					<dim>1152</dim>
					<dim>7</dim>
					<dim>7</dim>
				</port>
				<port id="1" precision="FP32">
					<dim>1</dim>
					<dim>1152</dim>
					<dim>1</dim>
					<dim>1</dim>
				</port>
			</input>
			<output>
				<port id="2" precision="FP32" names="Conv__418:0">
					<dim>1</dim>
					<dim>1152</dim>
					<dim>7</dim>
					<dim>7</dim>
				</port>
			</output>
		</layer>
		<layer id="193" name="model_1/model/re_lu_24/Relu6_model_1/model/batch_normalization_36/FusedBatchNormV3_model_1/model/batch_normalization_46/FusedBatchNormV3_model_1/model/depthwise_conv2d_15/depthwise_model_1/model/conv2d_24/Conv2D" type="Clamp" version="opset1">
			<data min="0" max="6"/>
			<rt_info>
				<attribute name="fused_names" version="0" value="Maximum_3103, model_1/model/re_lu_24/Relu6_model_1/model/batch_normalization_36/FusedBatchNormV3_model_1/model/batch_normalization_46/FusedBatchNormV3_model_1/model/depthwise_conv2d_15/depthwise_model_1/model/conv2d_24/Conv2D"/>
			</rt_info>
			<input>
				<port id="0" precision="FP32">
					<dim>1</dim>
					<dim>1152</dim>
					<dim>7</dim>
					<dim>7</dim>
				</port>
			</input>
			<output>
				<port id="1" precision="FP32" names="model_1/model/re_lu_24/Relu6_model_1/model/batch_normalization_36/FusedBatchNormV3_model_1/model/batch_normalization_46/FusedBatchNormV3_model_1/model/depthwise_conv2d_15/depthwise_model_1/model/conv2d_24/Conv2D:0">
					<dim>1</dim>
					<dim>1152</dim>
					<dim>7</dim>
					<dim>7</dim>
				</port>
			</output>
		</layer>
		<layer id="194" name="Reshape_3112" type="Const" version="opset1">
			<data element_type="f32" shape="1152, 1, 1, 5, 5" offset="4650336" size="115200"/>
			<output>
				<port id="0" precision="FP32">
					<dim>1152</dim>
					<dim>1</dim>
					<dim>1</dim>
					<dim>5</dim>
					<dim>5</dim>
				</port>
			</output>
		</layer>
		<layer id="195" name="Conv__419/WithoutBiases" type="GroupConvolution" version="opset1">
			<data strides="1, 1" pads_begin="2, 2" pads_end="2, 2" dilations="1, 1" auto_pad="explicit"/>
			<rt_info>
				<attribute name="fused_names" version="0" value="Conv__419/WithoutBiases, Reshape_3112"/>
			</rt_info>
			<input>
				<port id="0" precision="FP32">
					<dim>1</dim>
					<dim>1152</dim>
					<dim>7</dim>
					<dim>7</dim>
				</port>
				<port id="1" precision="FP32">
					<dim>1152</dim>
					<dim>1</dim>
					<dim>1</dim>
					<dim>5</dim>
					<dim>5</dim>
				</port>
			</input>
			<output>
				<port id="2" precision="FP32">
					<dim>1</dim>
					<dim>1152</dim>
					<dim>7</dim>
					<dim>7</dim>
				</port>
			</output>
		</layer>
		<layer id="196" name="Reshape_3198" type="Const" version="opset1">
			<data element_type="f32" shape="1, 1152, 1, 1" offset="4765536" size="4608"/>
			<output>
				<port id="0" precision="FP32">
					<dim>1</dim>
					<dim>1152</dim>
					<dim>1</dim>
					<dim>1</dim>
				</port>
			</output>
		</layer>
		<layer id="197" name="Conv__419" type="Add" version="opset1">
			<data auto_broadcast="numpy"/>
			<rt_info>
				<attribute name="fused_names" version="0" value="Concat_3197, Conv__419, Reshape_3198"/>
			</rt_info>
			<input>
				<port id="0" precision="FP32">
					<dim>1</dim>
					<dim>1152</dim>
					<dim>7</dim>
					<dim>7</dim>
				</port>
				<port id="1" precision="FP32">
					<dim>1</dim>
					<dim>1152</dim>
					<dim>1</dim>
					<dim>1</dim>
				</port>
			</input>
			<output>
				<port id="2" precision="FP32" names="Conv__419:0">
					<dim>1</dim>
					<dim>1152</dim>
					<dim>7</dim>
					<dim>7</dim>
				</port>
			</output>
		</layer>
		<layer id="198" name="model_1/model/re_lu_25/Relu6_model_1/model/batch_normalization_37/FusedBatchNormV3_model_1/model/batch_normalization_46/FusedBatchNormV3_model_1/model/depthwise_conv2d_15/depthwise_model_1/model/depthwise_conv2d_12/depthwise" type="Clamp" version="opset1">
			<data min="0" max="6"/>
			<rt_info>
				<attribute name="fused_names" version="0" value="Maximum_3226, model_1/model/re_lu_25/Relu6_model_1/model/batch_normalization_37/FusedBatchNormV3_model_1/model/batch_normalization_46/FusedBatchNormV3_model_1/model/depthwise_conv2d_15/depthwise_model_1/model/depthwise_conv2d_12/depthwise"/>
			</rt_info>
			<input>
				<port id="0" precision="FP32">
					<dim>1</dim>
					<dim>1152</dim>
					<dim>7</dim>
					<dim>7</dim>
				</port>
			</input>
			<output>
				<port id="1" precision="FP32" names="model_1/model/re_lu_25/Relu6_model_1/model/batch_normalization_37/FusedBatchNormV3_model_1/model/batch_normalization_46/FusedBatchNormV3_model_1/model/depthwise_conv2d_15/depthwise_model_1/model/depthwise_conv2d_12/depthwise:0">
					<dim>1</dim>
					<dim>1152</dim>
					<dim>7</dim>
					<dim>7</dim>
				</port>
			</output>
		</layer>
		<layer id="199" name="Conv2D_27/filter:0" type="Const" version="opset1">
			<data element_type="f32" shape="192, 1152, 1, 1" offset="4770144" size="884736"/>
			<rt_info>
				<attribute name="fused_names" version="0" value="Conv2D_27/filter:0"/>
			</rt_info>
			<output>
				<port id="0" precision="FP32" names="Conv2D_27/filter:0">
					<dim>192</dim>
					<dim>1152</dim>
					<dim>1</dim>
					<dim>1</dim>
				</port>
			</output>
		</layer>
		<layer id="200" name="Conv__420/WithoutBiases" type="Convolution" version="opset1">
			<data strides="1, 1" dilations="1, 1" pads_begin="0, 0" pads_end="0, 0" auto_pad="explicit"/>
			<rt_info>
				<attribute name="fused_names" version="0" value="Conv__420/WithoutBiases"/>
			</rt_info>
			<input>
				<port id="0" precision="FP32">
					<dim>1</dim>
					<dim>1152</dim>
					<dim>7</dim>
					<dim>7</dim>
				</port>
				<port id="1" precision="FP32">
					<dim>192</dim>
					<dim>1152</dim>
					<dim>1</dim>
					<dim>1</dim>
				</port>
			</input>
			<output>
				<port id="2" precision="FP32">
					<dim>1</dim>
					<dim>192</dim>
					<dim>7</dim>
					<dim>7</dim>
				</port>
			</output>
		</layer>
		<layer id="201" name="Reshape_3248" type="Const" version="opset1">
			<data element_type="f32" shape="1, 192, 1, 1" offset="5654880" size="768"/>
			<output>
				<port id="0" precision="FP32">
					<dim>1</dim>
					<dim>192</dim>
					<dim>1</dim>
					<dim>1</dim>
				</port>
			</output>
		</layer>
		<layer id="202" name="Conv__420" type="Add" version="opset1">
			<data auto_broadcast="numpy"/>
			<rt_info>
				<attribute name="fused_names" version="0" value="Concat_3247, Conv__420, Reshape_3248"/>
			</rt_info>
			<input>
				<port id="0" precision="FP32">
					<dim>1</dim>
					<dim>192</dim>
					<dim>7</dim>
					<dim>7</dim>
				</port>
				<port id="1" precision="FP32">
					<dim>1</dim>
					<dim>192</dim>
					<dim>1</dim>
					<dim>1</dim>
				</port>
			</input>
			<output>
				<port id="2" precision="FP32" names="Conv__420:0">
					<dim>1</dim>
					<dim>192</dim>
					<dim>7</dim>
					<dim>7</dim>
				</port>
			</output>
		</layer>
		<layer id="203" name="model_1/model/add_6/add" type="Add" version="opset1">
			<data auto_broadcast="numpy"/>
			<rt_info>
				<attribute name="fused_names" version="0" value="model_1/model/add_6/add"/>
			</rt_info>
			<input>
				<port id="0" precision="FP32">
					<dim>1</dim>
					<dim>192</dim>
					<dim>7</dim>
					<dim>7</dim>
				</port>
				<port id="1" precision="FP32">
					<dim>1</dim>
					<dim>192</dim>
					<dim>7</dim>
					<dim>7</dim>
				</port>
			</input>
			<output>
				<port id="2" precision="FP32" names="model_1/model/add_6/add:0">
					<dim>1</dim>
					<dim>192</dim>
					<dim>7</dim>
					<dim>7</dim>
				</port>
			</output>
		</layer>
		<layer id="204" name="Conv2D_28/filter:0" type="Const" version="opset1">
			<data element_type="f32" shape="1152, 192, 1, 1" offset="5655648" size="884736"/>
			<rt_info>
				<attribute name="fused_names" version="0" value="Conv2D_28/filter:0"/>
			</rt_info>
			<output>
				<port id="0" precision="FP32" names="Conv2D_28/filter:0">
					<dim>1152</dim>
					<dim>192</dim>
					<dim>1</dim>
					<dim>1</dim>
				</port>
			</output>
		</layer>
		<layer id="205" name="Conv__423/WithoutBiases" type="Convolution" version="opset1">
			<data strides="1, 1" dilations="1, 1" pads_begin="0, 0" pads_end="0, 0" auto_pad="explicit"/>
			<rt_info>
				<attribute name="fused_names" version="0" value="Conv__423/WithoutBiases"/>
			</rt_info>
			<input>
				<port id="0" precision="FP32">
					<dim>1</dim>
					<dim>192</dim>
					<dim>7</dim>
					<dim>7</dim>
				</port>
				<port id="1" precision="FP32">
					<dim>1152</dim>
					<dim>192</dim>
					<dim>1</dim>
					<dim>1</dim>
				</port>
			</input>
			<output>
				<port id="2" precision="FP32">
					<dim>1</dim>
					<dim>1152</dim>
					<dim>7</dim>
					<dim>7</dim>
				</port>
			</output>
		</layer>
		<layer id="206" name="Reshape_3297" type="Const" version="opset1">
			<data element_type="f32" shape="1, 1152, 1, 1" offset="6540384" size="4608"/>
			<output>
				<port id="0" precision="FP32">
					<dim>1</dim>
					<dim>1152</dim>
					<dim>1</dim>
					<dim>1</dim>
				</port>
			</output>
		</layer>
		<layer id="207" name="Conv__423" type="Add" version="opset1">
			<data auto_broadcast="numpy"/>
			<rt_info>
				<attribute name="fused_names" version="0" value="Concat_3296, Conv__423, Reshape_3297"/>
			</rt_info>
			<input>
				<port id="0" precision="FP32">
					<dim>1</dim>
					<dim>1152</dim>
					<dim>7</dim>
					<dim>7</dim>
				</port>
				<port id="1" precision="FP32">
					<dim>1</dim>
					<dim>1152</dim>
					<dim>1</dim>
					<dim>1</dim>
				</port>
			</input>
			<output>
				<port id="2" precision="FP32" names="Conv__423:0">
					<dim>1</dim>
					<dim>1152</dim>
					<dim>7</dim>
					<dim>7</dim>
				</port>
			</output>
		</layer>
		<layer id="208" name="model_1/model/re_lu_26/Relu6_model_1/model/batch_normalization_39/FusedBatchNormV3_model_1/model/batch_normalization_46/FusedBatchNormV3_model_1/model/depthwise_conv2d_15/depthwise_model_1/model/conv2d_26/Conv2D" type="Clamp" version="opset1">
			<data min="0" max="6"/>
			<rt_info>
				<attribute name="fused_names" version="0" value="Maximum_3325, model_1/model/re_lu_26/Relu6_model_1/model/batch_normalization_39/FusedBatchNormV3_model_1/model/batch_normalization_46/FusedBatchNormV3_model_1/model/depthwise_conv2d_15/depthwise_model_1/model/conv2d_26/Conv2D"/>
			</rt_info>
			<input>
				<port id="0" precision="FP32">
					<dim>1</dim>
					<dim>1152</dim>
					<dim>7</dim>
					<dim>7</dim>
				</port>
			</input>
			<output>
				<port id="1" precision="FP32" names="model_1/model/re_lu_26/Relu6_model_1/model/batch_normalization_39/FusedBatchNormV3_model_1/model/batch_normalization_46/FusedBatchNormV3_model_1/model/depthwise_conv2d_15/depthwise_model_1/model/conv2d_26/Conv2D:0">
					<dim>1</dim>
					<dim>1152</dim>
					<dim>7</dim>
					<dim>7</dim>
				</port>
			</output>
		</layer>
		<layer id="209" name="Reshape_3334" type="Const" version="opset1">
			<data element_type="f32" shape="1152, 1, 1, 5, 5" offset="6544992" size="115200"/>
			<output>
				<port id="0" precision="FP32">
					<dim>1152</dim>
					<dim>1</dim>
					<dim>1</dim>
					<dim>5</dim>
					<dim>5</dim>
				</port>
			</output>
		</layer>
		<layer id="210" name="Conv__424/WithoutBiases" type="GroupConvolution" version="opset1">
			<data strides="1, 1" pads_begin="2, 2" pads_end="2, 2" dilations="1, 1" auto_pad="explicit"/>
			<rt_info>
				<attribute name="fused_names" version="0" value="Conv__424/WithoutBiases, Reshape_3334"/>
			</rt_info>
			<input>
				<port id="0" precision="FP32">
					<dim>1</dim>
					<dim>1152</dim>
					<dim>7</dim>
					<dim>7</dim>
				</port>
				<port id="1" precision="FP32">
					<dim>1152</dim>
					<dim>1</dim>
					<dim>1</dim>
					<dim>5</dim>
					<dim>5</dim>
				</port>
			</input>
			<output>
				<port id="2" precision="FP32">
					<dim>1</dim>
					<dim>1152</dim>
					<dim>7</dim>
					<dim>7</dim>
				</port>
			</output>
		</layer>
		<layer id="211" name="Reshape_3420" type="Const" version="opset1">
			<data element_type="f32" shape="1, 1152, 1, 1" offset="6660192" size="4608"/>
			<output>
				<port id="0" precision="FP32">
					<dim>1</dim>
					<dim>1152</dim>
					<dim>1</dim>
					<dim>1</dim>
				</port>
			</output>
		</layer>
		<layer id="212" name="Conv__424" type="Add" version="opset1">
			<data auto_broadcast="numpy"/>
			<rt_info>
				<attribute name="fused_names" version="0" value="Concat_3419, Conv__424, Reshape_3420"/>
			</rt_info>
			<input>
				<port id="0" precision="FP32">
					<dim>1</dim>
					<dim>1152</dim>
					<dim>7</dim>
					<dim>7</dim>
				</port>
				<port id="1" precision="FP32">
					<dim>1</dim>
					<dim>1152</dim>
					<dim>1</dim>
					<dim>1</dim>
				</port>
			</input>
			<output>
				<port id="2" precision="FP32" names="Conv__424:0">
					<dim>1</dim>
					<dim>1152</dim>
					<dim>7</dim>
					<dim>7</dim>
				</port>
			</output>
		</layer>
		<layer id="213" name="model_1/model/re_lu_27/Relu6_model_1/model/batch_normalization_40/FusedBatchNormV3_model_1/model/batch_normalization_46/FusedBatchNormV3_model_1/model/depthwise_conv2d_15/depthwise_model_1/model/depthwise_conv2d_13/depthwise" type="Clamp" version="opset1">
			<data min="0" max="6"/>
			<rt_info>
				<attribute name="fused_names" version="0" value="Maximum_3448, model_1/model/re_lu_27/Relu6_model_1/model/batch_normalization_40/FusedBatchNormV3_model_1/model/batch_normalization_46/FusedBatchNormV3_model_1/model/depthwise_conv2d_15/depthwise_model_1/model/depthwise_conv2d_13/depthwise"/>
			</rt_info>
			<input>
				<port id="0" precision="FP32">
					<dim>1</dim>
					<dim>1152</dim>
					<dim>7</dim>
					<dim>7</dim>
				</port>
			</input>
			<output>
				<port id="1" precision="FP32" names="model_1/model/re_lu_27/Relu6_model_1/model/batch_normalization_40/FusedBatchNormV3_model_1/model/batch_normalization_46/FusedBatchNormV3_model_1/model/depthwise_conv2d_15/depthwise_model_1/model/depthwise_conv2d_13/depthwise:0">
					<dim>1</dim>
					<dim>1152</dim>
					<dim>7</dim>
					<dim>7</dim>
				</port>
			</output>
		</layer>
		<layer id="214" name="Conv2D_29/filter:0" type="Const" version="opset1">
			<data element_type="f32" shape="192, 1152, 1, 1" offset="6664800" size="884736"/>
			<rt_info>
				<attribute name="fused_names" version="0" value="Conv2D_29/filter:0"/>
			</rt_info>
			<output>
				<port id="0" precision="FP32" names="Conv2D_29/filter:0">
					<dim>192</dim>
					<dim>1152</dim>
					<dim>1</dim>
					<dim>1</dim>
				</port>
			</output>
		</layer>
		<layer id="215" name="Conv__425/WithoutBiases" type="Convolution" version="opset1">
			<data strides="1, 1" dilations="1, 1" pads_begin="0, 0" pads_end="0, 0" auto_pad="explicit"/>
			<rt_info>
				<attribute name="fused_names" version="0" value="Conv__425/WithoutBiases"/>
			</rt_info>
			<input>
				<port id="0" precision="FP32">
					<dim>1</dim>
					<dim>1152</dim>
					<dim>7</dim>
					<dim>7</dim>
				</port>
				<port id="1" precision="FP32">
					<dim>192</dim>
					<dim>1152</dim>
					<dim>1</dim>
					<dim>1</dim>
				</port>
			</input>
			<output>
				<port id="2" precision="FP32">
					<dim>1</dim>
					<dim>192</dim>
					<dim>7</dim>
					<dim>7</dim>
				</port>
			</output>
		</layer>
		<layer id="216" name="Reshape_3470" type="Const" version="opset1">
			<data element_type="f32" shape="1, 192, 1, 1" offset="7549536" size="768"/>
			<output>
				<port id="0" precision="FP32">
					<dim>1</dim>
					<dim>192</dim>
					<dim>1</dim>
					<dim>1</dim>
				</port>
			</output>
		</layer>
		<layer id="217" name="Conv__425" type="Add" version="opset1">
			<data auto_broadcast="numpy"/>
			<rt_info>
				<attribute name="fused_names" version="0" value="Concat_3469, Conv__425, Reshape_3470"/>
			</rt_info>
			<input>
				<port id="0" precision="FP32">
					<dim>1</dim>
					<dim>192</dim>
					<dim>7</dim>
					<dim>7</dim>
				</port>
				<port id="1" precision="FP32">
					<dim>1</dim>
					<dim>192</dim>
					<dim>1</dim>
					<dim>1</dim>
				</port>
			</input>
			<output>
				<port id="2" precision="FP32" names="Conv__425:0">
					<dim>1</dim>
					<dim>192</dim>
					<dim>7</dim>
					<dim>7</dim>
				</port>
			</output>
		</layer>
		<layer id="218" name="model_1/model/add_7/add" type="Add" version="opset1">
			<data auto_broadcast="numpy"/>
			<rt_info>
				<attribute name="fused_names" version="0" value="model_1/model/add_7/add"/>
			</rt_info>
			<input>
				<port id="0" precision="FP32">
					<dim>1</dim>
					<dim>192</dim>
					<dim>7</dim>
					<dim>7</dim>
				</port>
				<port id="1" precision="FP32">
					<dim>1</dim>
					<dim>192</dim>
					<dim>7</dim>
					<dim>7</dim>
				</port>
			</input>
			<output>
				<port id="2" precision="FP32" names="model_1/model/add_7/add:0">
					<dim>1</dim>
					<dim>192</dim>
					<dim>7</dim>
					<dim>7</dim>
				</port>
			</output>
		</layer>
		<layer id="219" name="Conv2D_30/filter:0" type="Const" version="opset1">
			<data element_type="f32" shape="1152, 192, 1, 1" offset="7550304" size="884736"/>
			<rt_info>
				<attribute name="fused_names" version="0" value="Conv2D_30/filter:0"/>
			</rt_info>
			<output>
				<port id="0" precision="FP32" names="Conv2D_30/filter:0">
					<dim>1152</dim>
					<dim>192</dim>
					<dim>1</dim>
					<dim>1</dim>
				</port>
			</output>
		</layer>
		<layer id="220" name="Conv__428/WithoutBiases" type="Convolution" version="opset1">
			<data strides="1, 1" dilations="1, 1" pads_begin="0, 0" pads_end="0, 0" auto_pad="explicit"/>
			<rt_info>
				<attribute name="fused_names" version="0" value="Conv__428/WithoutBiases"/>
			</rt_info>
			<input>
				<port id="0" precision="FP32">
					<dim>1</dim>
					<dim>192</dim>
					<dim>7</dim>
					<dim>7</dim>
				</port>
				<port id="1" precision="FP32">
					<dim>1152</dim>
					<dim>192</dim>
					<dim>1</dim>
					<dim>1</dim>
				</port>
			</input>
			<output>
				<port id="2" precision="FP32">
					<dim>1</dim>
					<dim>1152</dim>
					<dim>7</dim>
					<dim>7</dim>
				</port>
			</output>
		</layer>
		<layer id="221" name="Reshape_3519" type="Const" version="opset1">
			<data element_type="f32" shape="1, 1152, 1, 1" offset="8435040" size="4608"/>
			<output>
				<port id="0" precision="FP32">
					<dim>1</dim>
					<dim>1152</dim>
					<dim>1</dim>
					<dim>1</dim>
				</port>
			</output>
		</layer>
		<layer id="222" name="Conv__428" type="Add" version="opset1">
			<data auto_broadcast="numpy"/>
			<rt_info>
				<attribute name="fused_names" version="0" value="Concat_3518, Conv__428, Reshape_3519"/>
			</rt_info>
			<input>
				<port id="0" precision="FP32">
					<dim>1</dim>
					<dim>1152</dim>
					<dim>7</dim>
					<dim>7</dim>
				</port>
				<port id="1" precision="FP32">
					<dim>1</dim>
					<dim>1152</dim>
					<dim>1</dim>
					<dim>1</dim>
				</port>
			</input>
			<output>
				<port id="2" precision="FP32" names="Conv__428:0">
					<dim>1</dim>
					<dim>1152</dim>
					<dim>7</dim>
					<dim>7</dim>
				</port>
			</output>
		</layer>
		<layer id="223" name="model_1/model/re_lu_28/Relu6_model_1/model/batch_normalization_42/FusedBatchNormV3_model_1/model/batch_normalization_46/FusedBatchNormV3_model_1/model/depthwise_conv2d_15/depthwise_model_1/model/conv2d_28/Conv2D" type="Clamp" version="opset1">
			<data min="0" max="6"/>
			<rt_info>
				<attribute name="fused_names" version="0" value="Maximum_3547, model_1/model/re_lu_28/Relu6_model_1/model/batch_normalization_42/FusedBatchNormV3_model_1/model/batch_normalization_46/FusedBatchNormV3_model_1/model/depthwise_conv2d_15/depthwise_model_1/model/conv2d_28/Conv2D"/>
			</rt_info>
			<input>
				<port id="0" precision="FP32">
					<dim>1</dim>
					<dim>1152</dim>
					<dim>7</dim>
					<dim>7</dim>
				</port>
			</input>
			<output>
				<port id="1" precision="FP32" names="model_1/model/re_lu_28/Relu6_model_1/model/batch_normalization_42/FusedBatchNormV3_model_1/model/batch_normalization_46/FusedBatchNormV3_model_1/model/depthwise_conv2d_15/depthwise_model_1/model/conv2d_28/Conv2D:0">
					<dim>1</dim>
					<dim>1152</dim>
					<dim>7</dim>
					<dim>7</dim>
				</port>
			</output>
		</layer>
		<layer id="224" name="Reshape_3556" type="Const" version="opset1">
			<data element_type="f32" shape="1152, 1, 1, 5, 5" offset="8439648" size="115200"/>
			<output>
				<port id="0" precision="FP32">
					<dim>1152</dim>
					<dim>1</dim>
					<dim>1</dim>
					<dim>5</dim>
					<dim>5</dim>
				</port>
			</output>
		</layer>
		<layer id="225" name="Conv__429/WithoutBiases" type="GroupConvolution" version="opset1">
			<data strides="1, 1" pads_begin="2, 2" pads_end="2, 2" dilations="1, 1" auto_pad="explicit"/>
			<rt_info>
				<attribute name="fused_names" version="0" value="Conv__429/WithoutBiases, Reshape_3556"/>
			</rt_info>
			<input>
				<port id="0" precision="FP32">
					<dim>1</dim>
					<dim>1152</dim>
					<dim>7</dim>
					<dim>7</dim>
				</port>
				<port id="1" precision="FP32">
					<dim>1152</dim>
					<dim>1</dim>
					<dim>1</dim>
					<dim>5</dim>
					<dim>5</dim>
				</port>
			</input>
			<output>
				<port id="2" precision="FP32">
					<dim>1</dim>
					<dim>1152</dim>
					<dim>7</dim>
					<dim>7</dim>
				</port>
			</output>
		</layer>
		<layer id="226" name="Reshape_3642" type="Const" version="opset1">
			<data element_type="f32" shape="1, 1152, 1, 1" offset="8554848" size="4608"/>
			<output>
				<port id="0" precision="FP32">
					<dim>1</dim>
					<dim>1152</dim>
					<dim>1</dim>
					<dim>1</dim>
				</port>
			</output>
		</layer>
		<layer id="227" name="Conv__429" type="Add" version="opset1">
			<data auto_broadcast="numpy"/>
			<rt_info>
				<attribute name="fused_names" version="0" value="Concat_3641, Conv__429, Reshape_3642"/>
			</rt_info>
			<input>
				<port id="0" precision="FP32">
					<dim>1</dim>
					<dim>1152</dim>
					<dim>7</dim>
					<dim>7</dim>
				</port>
				<port id="1" precision="FP32">
					<dim>1</dim>
					<dim>1152</dim>
					<dim>1</dim>
					<dim>1</dim>
				</port>
			</input>
			<output>
				<port id="2" precision="FP32" names="Conv__429:0">
					<dim>1</dim>
					<dim>1152</dim>
					<dim>7</dim>
					<dim>7</dim>
				</port>
			</output>
		</layer>
		<layer id="228" name="model_1/model/re_lu_29/Relu6_model_1/model/batch_normalization_43/FusedBatchNormV3_model_1/model/batch_normalization_46/FusedBatchNormV3_model_1/model/depthwise_conv2d_15/depthwise_model_1/model/depthwise_conv2d_14/depthwise" type="Clamp" version="opset1">
			<data min="0" max="6"/>
			<rt_info>
				<attribute name="fused_names" version="0" value="Maximum_3670, model_1/model/re_lu_29/Relu6_model_1/model/batch_normalization_43/FusedBatchNormV3_model_1/model/batch_normalization_46/FusedBatchNormV3_model_1/model/depthwise_conv2d_15/depthwise_model_1/model/depthwise_conv2d_14/depthwise"/>
			</rt_info>
			<input>
				<port id="0" precision="FP32">
					<dim>1</dim>
					<dim>1152</dim>
					<dim>7</dim>
					<dim>7</dim>
				</port>
			</input>
			<output>
				<port id="1" precision="FP32" names="model_1/model/re_lu_29/Relu6_model_1/model/batch_normalization_43/FusedBatchNormV3_model_1/model/batch_normalization_46/FusedBatchNormV3_model_1/model/depthwise_conv2d_15/depthwise_model_1/model/depthwise_conv2d_14/depthwise:0">
					<dim>1</dim>
					<dim>1152</dim>
					<dim>7</dim>
					<dim>7</dim>
				</port>
			</output>
		</layer>
		<layer id="229" name="Conv2D_31/filter:0" type="Const" version="opset1">
			<data element_type="f32" shape="192, 1152, 1, 1" offset="8559456" size="884736"/>
			<rt_info>
				<attribute name="fused_names" version="0" value="Conv2D_31/filter:0"/>
			</rt_info>
			<output>
				<port id="0" precision="FP32" names="Conv2D_31/filter:0">
					<dim>192</dim>
					<dim>1152</dim>
					<dim>1</dim>
					<dim>1</dim>
				</port>
			</output>
		</layer>
		<layer id="230" name="Conv__430/WithoutBiases" type="Convolution" version="opset1">
			<data strides="1, 1" dilations="1, 1" pads_begin="0, 0" pads_end="0, 0" auto_pad="explicit"/>
			<rt_info>
				<attribute name="fused_names" version="0" value="Conv__430/WithoutBiases"/>
			</rt_info>
			<input>
				<port id="0" precision="FP32">
					<dim>1</dim>
					<dim>1152</dim>
					<dim>7</dim>
					<dim>7</dim>
				</port>
				<port id="1" precision="FP32">
					<dim>192</dim>
					<dim>1152</dim>
					<dim>1</dim>
					<dim>1</dim>
				</port>
			</input>
			<output>
				<port id="2" precision="FP32">
					<dim>1</dim>
					<dim>192</dim>
					<dim>7</dim>
					<dim>7</dim>
				</port>
			</output>
		</layer>
		<layer id="231" name="Reshape_3692" type="Const" version="opset1">
			<data element_type="f32" shape="1, 192, 1, 1" offset="9444192" size="768"/>
			<output>
				<port id="0" precision="FP32">
					<dim>1</dim>
					<dim>192</dim>
					<dim>1</dim>
					<dim>1</dim>
				</port>
			</output>
		</layer>
		<layer id="232" name="Conv__430" type="Add" version="opset1">
			<data auto_broadcast="numpy"/>
			<rt_info>
				<attribute name="fused_names" version="0" value="Concat_3691, Conv__430, Reshape_3692"/>
			</rt_info>
			<input>
				<port id="0" precision="FP32">
					<dim>1</dim>
					<dim>192</dim>
					<dim>7</dim>
					<dim>7</dim>
				</port>
				<port id="1" precision="FP32">
					<dim>1</dim>
					<dim>192</dim>
					<dim>1</dim>
					<dim>1</dim>
				</port>
			</input>
			<output>
				<port id="2" precision="FP32" names="Conv__430:0">
					<dim>1</dim>
					<dim>192</dim>
					<dim>7</dim>
					<dim>7</dim>
				</port>
			</output>
		</layer>
		<layer id="233" name="model_1/model/add_8/add" type="Add" version="opset1">
			<data auto_broadcast="numpy"/>
			<rt_info>
				<attribute name="fused_names" version="0" value="model_1/model/add_8/add"/>
			</rt_info>
			<input>
				<port id="0" precision="FP32">
					<dim>1</dim>
					<dim>192</dim>
					<dim>7</dim>
					<dim>7</dim>
				</port>
				<port id="1" precision="FP32">
					<dim>1</dim>
					<dim>192</dim>
					<dim>7</dim>
					<dim>7</dim>
				</port>
			</input>
			<output>
				<port id="2" precision="FP32" names="model_1/model/add_8/add:0">
					<dim>1</dim>
					<dim>192</dim>
					<dim>7</dim>
					<dim>7</dim>
				</port>
			</output>
		</layer>
		<layer id="234" name="Conv2D_32/filter:0" type="Const" version="opset1">
			<data element_type="f32" shape="1152, 192, 1, 1" offset="9444960" size="884736"/>
			<rt_info>
				<attribute name="fused_names" version="0" value="Conv2D_32/filter:0"/>
			</rt_info>
			<output>
				<port id="0" precision="FP32" names="Conv2D_32/filter:0">
					<dim>1152</dim>
					<dim>192</dim>
					<dim>1</dim>
					<dim>1</dim>
				</port>
			</output>
		</layer>
		<layer id="235" name="Conv__431/WithoutBiases" type="Convolution" version="opset1">
			<data strides="1, 1" dilations="1, 1" pads_begin="0, 0" pads_end="0, 0" auto_pad="explicit"/>
			<rt_info>
				<attribute name="fused_names" version="0" value="Conv__431/WithoutBiases"/>
			</rt_info>
			<input>
				<port id="0" precision="FP32">
					<dim>1</dim>
					<dim>192</dim>
					<dim>7</dim>
					<dim>7</dim>
				</port>
				<port id="1" precision="FP32">
					<dim>1152</dim>
					<dim>192</dim>
					<dim>1</dim>
					<dim>1</dim>
				</port>
			</input>
			<output>
				<port id="2" precision="FP32">
					<dim>1</dim>
					<dim>1152</dim>
					<dim>7</dim>
					<dim>7</dim>
				</port>
			</output>
		</layer>
		<layer id="236" name="Reshape_3741" type="Const" version="opset1">
			<data element_type="f32" shape="1, 1152, 1, 1" offset="10329696" size="4608"/>
			<output>
				<port id="0" precision="FP32">
					<dim>1</dim>
					<dim>1152</dim>
					<dim>1</dim>
					<dim>1</dim>
				</port>
			</output>
		</layer>
		<layer id="237" name="Conv__431" type="Add" version="opset1">
			<data auto_broadcast="numpy"/>
			<rt_info>
				<attribute name="fused_names" version="0" value="Concat_3740, Conv__431, Reshape_3741"/>
			</rt_info>
			<input>
				<port id="0" precision="FP32">
					<dim>1</dim>
					<dim>1152</dim>
					<dim>7</dim>
					<dim>7</dim>
				</port>
				<port id="1" precision="FP32">
					<dim>1</dim>
					<dim>1152</dim>
					<dim>1</dim>
					<dim>1</dim>
				</port>
			</input>
			<output>
				<port id="2" precision="FP32" names="Conv__431:0">
					<dim>1</dim>
					<dim>1152</dim>
					<dim>7</dim>
					<dim>7</dim>
				</port>
			</output>
		</layer>
		<layer id="238" name="model_1/model/re_lu_30/Relu6_model_1/model/batch_normalization_45/FusedBatchNormV3_model_1/model/batch_normalization_46/FusedBatchNormV3_model_1/model/depthwise_conv2d_15/depthwise_model_1/model/conv2d_30/Conv2D" type="Clamp" version="opset1">
			<data min="0" max="6"/>
			<rt_info>
				<attribute name="fused_names" version="0" value="Maximum_3769, model_1/model/re_lu_30/Relu6_model_1/model/batch_normalization_45/FusedBatchNormV3_model_1/model/batch_normalization_46/FusedBatchNormV3_model_1/model/depthwise_conv2d_15/depthwise_model_1/model/conv2d_30/Conv2D"/>
			</rt_info>
			<input>
				<port id="0" precision="FP32">
					<dim>1</dim>
					<dim>1152</dim>
					<dim>7</dim>
					<dim>7</dim>
				</port>
			</input>
			<output>
				<port id="1" precision="FP32" names="model_1/model/re_lu_30/Relu6_model_1/model/batch_normalization_45/FusedBatchNormV3_model_1/model/batch_normalization_46/FusedBatchNormV3_model_1/model/depthwise_conv2d_15/depthwise_model_1/model/conv2d_30/Conv2D:0">
					<dim>1</dim>
					<dim>1152</dim>
					<dim>7</dim>
					<dim>7</dim>
				</port>
			</output>
		</layer>
		<layer id="239" name="Reshape_3778" type="Const" version="opset1">
			<data element_type="f32" shape="1152, 1, 1, 3, 3" offset="10334304" size="41472"/>
			<output>
				<port id="0" precision="FP32">
					<dim>1152</dim>
					<dim>1</dim>
					<dim>1</dim>
					<dim>3</dim>
					<dim>3</dim>
				</port>
			</output>
		</layer>
		<layer id="240" name="Conv__432/WithoutBiases" type="GroupConvolution" version="opset1">
			<data strides="1, 1" pads_begin="1, 1" pads_end="1, 1" dilations="1, 1" auto_pad="explicit"/>
			<rt_info>
				<attribute name="fused_names" version="0" value="Conv__432/WithoutBiases, Reshape_3778"/>
			</rt_info>
			<input>
				<port id="0" precision="FP32">
					<dim>1</dim>
					<dim>1152</dim>
					<dim>7</dim>
					<dim>7</dim>
				</port>
				<port id="1" precision="FP32">
					<dim>1152</dim>
					<dim>1</dim>
					<dim>1</dim>
					<dim>3</dim>
					<dim>3</dim>
				</port>
			</input>
			<output>
				<port id="2" precision="FP32">
					<dim>1</dim>
					<dim>1152</dim>
					<dim>7</dim>
					<dim>7</dim>
				</port>
			</output>
		</layer>
		<layer id="241" name="Reshape_3864" type="Const" version="opset1">
			<data element_type="f32" shape="1, 1152, 1, 1" offset="10375776" size="4608"/>
			<output>
				<port id="0" precision="FP32">
					<dim>1</dim>
					<dim>1152</dim>
					<dim>1</dim>
					<dim>1</dim>
				</port>
			</output>
		</layer>
		<layer id="242" name="Conv__432" type="Add" version="opset1">
			<data auto_broadcast="numpy"/>
			<rt_info>
				<attribute name="fused_names" version="0" value="Concat_3863, Conv__432, Reshape_3864"/>
			</rt_info>
			<input>
				<port id="0" precision="FP32">
					<dim>1</dim>
					<dim>1152</dim>
					<dim>7</dim>
					<dim>7</dim>
				</port>
				<port id="1" precision="FP32">
					<dim>1</dim>
					<dim>1152</dim>
					<dim>1</dim>
					<dim>1</dim>
				</port>
			</input>
			<output>
				<port id="2" precision="FP32" names="Conv__432:0">
					<dim>1</dim>
					<dim>1152</dim>
					<dim>7</dim>
					<dim>7</dim>
				</port>
			</output>
		</layer>
		<layer id="243" name="model_1/model/re_lu_31/Relu6_model_1/model/batch_normalization_46/FusedBatchNormV3_model_1/model/depthwise_conv2d_15/depthwise" type="Clamp" version="opset1">
			<data min="0" max="6"/>
			<rt_info>
				<attribute name="fused_names" version="0" value="Maximum_3892, model_1/model/re_lu_31/Relu6_model_1/model/batch_normalization_46/FusedBatchNormV3_model_1/model/depthwise_conv2d_15/depthwise"/>
			</rt_info>
			<input>
				<port id="0" precision="FP32">
					<dim>1</dim>
					<dim>1152</dim>
					<dim>7</dim>
					<dim>7</dim>
				</port>
			</input>
			<output>
				<port id="1" precision="FP32" names="model_1/model/re_lu_31/Relu6_model_1/model/batch_normalization_46/FusedBatchNormV3_model_1/model/depthwise_conv2d_15/depthwise:0">
					<dim>1</dim>
					<dim>1152</dim>
					<dim>7</dim>
					<dim>7</dim>
				</port>
			</output>
		</layer>
		<layer id="244" name="Concat__245:0" type="Const" version="opset1">
			<data element_type="i64" shape="4" offset="10380384" size="32"/>
			<rt_info>
				<attribute name="fused_names" version="0" value="Concat__245:0"/>
			</rt_info>
			<output>
				<port id="0" precision="I64" names="Concat__245:0">
					<dim>4</dim>
				</port>
			</output>
		</layer>
		<layer id="245" name="Convert_4163" type="Const" version="opset1">
			<data element_type="f32" shape="4" offset="10380416" size="16"/>
			<output>
				<port id="0" precision="FP32">
					<dim>4</dim>
				</port>
			</output>
		</layer>
		<layer id="246" name="ShapeOf_4161" type="ShapeOf" version="opset3">
			<data output_type="i64"/>
			<rt_info>
				<attribute name="fused_names" version="0" value="ShapeOf_4161"/>
			</rt_info>
			<input>
				<port id="0" precision="FP32">
					<dim>1</dim>
					<dim>1152</dim>
					<dim>7</dim>
					<dim>7</dim>
				</port>
			</input>
			<output>
				<port id="1" precision="I64">
					<dim>4</dim>
				</port>
			</output>
		</layer>
		<layer id="247" name="Convert_4162" type="Convert" version="opset1">
			<data destination_type="f32"/>
			<rt_info>
				<attribute name="fused_names" version="0" value="Convert_4162"/>
			</rt_info>
			<input>
				<port id="0" precision="I64">
					<dim>4</dim>
				</port>
			</input>
			<output>
				<port id="1" precision="FP32">
					<dim>4</dim>
				</port>
			</output>
		</layer>
		<layer id="248" name="Divide_4164" type="Divide" version="opset1">
			<data auto_broadcast="numpy" m_pythondiv="true"/>
			<rt_info>
				<attribute name="fused_names" version="0" value="Convert_4163, Divide_4164"/>
			</rt_info>
			<input>
				<port id="0" precision="FP32">
					<dim>4</dim>
				</port>
…
			<data element_type="f32" shape="1, 6, 1, 1" offset="11753776" size="24"/>
			<output>
				<port id="0" precision="FP32">
					<dim>1</dim>
					<dim>6</dim>
					<dim>1</dim>
					<dim>1</dim>
				</port>
			</output>
		</layer>
		<layer id="349" name="Conv__438" type="Add" version="opset1">
			<data auto_broadcast="numpy"/>
			<rt_info>
				<attribute name="fused_names" version="0" value="Concat_4124, Conv__438, Reshape_4125"/>
			</rt_info>
			<input>
				<port id="0" precision="FP32">
					<dim>1</dim>
					<dim>6</dim>
					<dim>7</dim>
					<dim>7</dim>
				</port>
				<port id="1" precision="FP32">
					<dim>1</dim>
					<dim>6</dim>
					<dim>1</dim>
					<dim>1</dim>
				</port>
			</input>
			<output>
				<port id="2" precision="FP32" names="Conv__438:0">
					<dim>1</dim>
					<dim>6</dim>
					<dim>7</dim>
					<dim>7</dim>
				</port>
			</output>
		</layer>
		<layer id="350" name="Constant_4153" type="Const" version="opset1">
			<data element_type="i64" shape="4" offset="11732976" size="32"/>
			<rt_info>
				<attribute name="fused_names" version="0" value="Constant_4153"/>
			</rt_info>
			<output>
				<port id="0" precision="I64">
					<dim>4</dim>
				</port>
			</output>
		</layer>
		<layer id="351" name="Conv2D_43__356" type="Transpose" version="opset1">
			<rt_info>
				<attribute name="fused_names" version="0" value="Conv2D_43__356"/>
			</rt_info>
			<input>
				<port id="0" precision="FP32">
					<dim>1</dim>
					<dim>6</dim>
					<dim>7</dim>
					<dim>7</dim>
				</port>
				<port id="1" precision="I64">
					<dim>4</dim>
				</port>
			</input>
			<output>
				<port id="2" precision="FP32" names="Conv2D_43__356:0">
					<dim>1</dim>
					<dim>7</dim>
					<dim>7</dim>
					<dim>6</dim>
				</port>
			</output>
		</layer>
		<layer id="352" name="model_1/model/reshaped_classifier_person_32/Reshape" type="Reshape" version="opset1">
			<data special_zero="true"/>
			<rt_info>
				<attribute name="fused_names" version="0" value="model_1/model/reshaped_classifier_person_32/Reshape"/>
			</rt_info>
			<input>
				<port id="0" precision="FP32">
					<dim>1</dim>
					<dim>7</dim>
					<dim>7</dim>
					<dim>6</dim>
				</port>
				<port id="1" precision="I64">
					<dim>3</dim>
				</port>
			</input>
			<output>
				<port id="2" precision="FP32" names="model_1/model/reshaped_classifier_person_32/Reshape:0">
					<dim>1</dim>
					<dim>294</dim>
					<dim>1</dim>
				</port>
			</output>
		</layer>
		<layer id="353" name="Identity_1" type="Concat" version="opset1">
			<data axis="1"/>
			<rt_info>
				<attribute name="fused_names" version="0" value="Identity_1"/>
			</rt_info>
			<input>
				<port id="0" precision="FP32">
					<dim>1</dim>
					<dim>1568</dim>
					<dim>1</dim>
				</port>
				<port id="1" precision="FP32">
					<dim>1</dim>
					<dim>392</dim>
					<dim>1</dim>
				</port>
				<port id="2" precision="FP32">
					<dim>1</dim>
					<dim>294</dim>
					<dim>1</dim>
				</port>
			</input>
			<output>
				<port id="3" precision="FP32" names="Identity_1">
					<dim>1</dim>
					<dim>2254</dim>
					<dim>1</dim>
				</port>
			</output>
		</layer>
		<layer id="355" name="Reshape_5331" type="Const" version="opset1">
			<data element_type="f32" shape="24, 1, 1, 3, 3" offset="11753800" size="864"/>
			<output>
				<port id="0" precision="FP32">
					<dim>24</dim>
					<dim>1</dim>
					<dim>1</dim>
					<dim>3</dim>
					<dim>3</dim>
				</port>
			</output>
		</layer>
		<layer id="356" name="Conv__473/WithoutBiases" type="GroupConvolution" version="opset1">
			<data strides="2, 2" pads_begin="0, 0" pads_end="0, 0" dilations="1, 1" auto_pad="explicit"/>
			<rt_info>
				<attribute name="fused_names" version="0" value="Conv__473/WithoutBiases, Reshape_5331"/>
			</rt_info>
			<input>
				<port id="0" precision="FP32">
					<dim>1</dim>
					<dim>24</dim>
					<dim>58</dim>
					<dim>58</dim>
				</port>
				<port id="1" precision="FP32">
					<dim>24</dim>
					<dim>1</dim>
					<dim>1</dim>
					<dim>3</dim>
					<dim>3</dim>
				</port>
			</input>
			<output>
				<port id="2" precision="FP32">
					<dim>1</dim>
					<dim>24</dim>
					<dim>28</dim>
					<dim>28</dim>
				</port>
			</output>
		</layer>
		<layer id="357" name="Reshape_5417" type="Const" version="opset1">
			<data element_type="f32" shape="1, 24, 1, 1" offset="11754664" size="96"/>
			<output>
				<port id="0" precision="FP32">
					<dim>1</dim>
					<dim>24</dim>
					<dim>1</dim>
					<dim>1</dim>
				</port>
			</output>
		</layer>
		<layer id="358" name="Conv__473" type="Add" version="opset1">
			<data auto_broadcast="numpy"/>
			<rt_info>
				<attribute name="fused_names" version="0" value="Concat_5416, Conv__473, Reshape_5417"/>
			</rt_info>
			<input>
				<port id="0" precision="FP32">
					<dim>1</dim>
					<dim>24</dim>
					<dim>28</dim>
					<dim>28</dim>
				</port>
				<port id="1" precision="FP32">
					<dim>1</dim>
					<dim>24</dim>
					<dim>1</dim>
					<dim>1</dim>
				</port>
			</input>
			<output>
				<port id="2" precision="FP32" names="Conv__473:0">
					<dim>1</dim>
					<dim>24</dim>
					<dim>28</dim>
					<dim>28</dim>
				</port>
			</output>
		</layer>
		<layer id="359" name="Conv2D_40/filter:0" type="Const" version="opset1">
			<data element_type="f32" shape="24, 24, 1, 1" offset="11754760" size="2304"/>
			<rt_info>
				<attribute name="fused_names" version="0" value="Conv2D_40/filter:0"/>
			</rt_info>
			<output>
				<port id="0" precision="FP32" names="Conv2D_40/filter:0">
					<dim>24</dim>
					<dim>24</dim>
					<dim>1</dim>
					<dim>1</dim>
				</port>
			</output>
		</layer>
		<layer id="360" name="Conv__474/WithoutBiases" type="Convolution" version="opset1">
			<data strides="1, 1" dilations="1, 1" pads_begin="0, 0" pads_end="0, 0" auto_pad="explicit"/>
			<rt_info>
				<attribute name="fused_names" version="0" value="Conv__474/WithoutBiases"/>
			</rt_info>
			<input>
				<port id="0" precision="FP32">
					<dim>1</dim>
					<dim>24</dim>
					<dim>28</dim>
					<dim>28</dim>
				</port>
				<port id="1" precision="FP32">
					<dim>24</dim>
					<dim>24</dim>
					<dim>1</dim>
					<dim>1</dim>
				</port>
			</input>
			<output>
				<port id="2" precision="FP32">
					<dim>1</dim>
					<dim>24</dim>
					<dim>28</dim>
					<dim>28</dim>
				</port>
			</output>
		</layer>
		<layer id="361" name="Reshape_5465" type="Const" version="opset1">
			<data element_type="f32" shape="1, 24, 1, 1" offset="11757064" size="96"/>
			<output>
				<port id="0" precision="FP32">
					<dim>1</dim>
					<dim>24</dim>
					<dim>1</dim>
					<dim>1</dim>
				</port>
			</output>
		</layer>
		<layer id="362" name="Conv__474" type="Add" version="opset1">
			<data auto_broadcast="numpy"/>
			<rt_info>
				<attribute name="fused_names" version="0" value="Concat_5464, Conv__474, Reshape_5465"/>
			</rt_info>
			<input>
				<port id="0" precision="FP32">
					<dim>1</dim>
					<dim>24</dim>
					<dim>28</dim>
					<dim>28</dim>
				</port>
				<port id="1" precision="FP32">
					<dim>1</dim>
					<dim>24</dim>
					<dim>1</dim>
					<dim>1</dim>
				</port>
			</input>
			<output>
				<port id="2" precision="FP32" names="Conv__474:0">
					<dim>1</dim>
					<dim>24</dim>
					<dim>28</dim>
					<dim>28</dim>
				</port>
			</output>
		</layer>
		<layer id="363" name="Constant_5493" type="Const" version="opset1">
			<data element_type="i64" shape="4" offset="11732976" size="32"/>
			<rt_info>
				<attribute name="fused_names" version="0" value="Constant_5493"/>
			</rt_info>
			<output>
				<port id="0" precision="I64">
					<dim>4</dim>
				</port>
			</output>
		</layer>
		<layer id="364" name="Conv2D_40__310" type="Transpose" version="opset1">
			<rt_info>
				<attribute name="fused_names" version="0" value="Conv2D_40__310"/>
			</rt_info>
			<input>
				<port id="0" precision="FP32">
					<dim>1</dim>
					<dim>24</dim>
					<dim>28</dim>
					<dim>28</dim>
				</port>
				<port id="1" precision="I64">
					<dim>4</dim>
				</port>
			</input>
			<output>
				<port id="2" precision="FP32" names="Conv2D_40__310:0">
					<dim>1</dim>
					<dim>28</dim>
					<dim>28</dim>
					<dim>24</dim>
				</port>
			</output>
		</layer>
		<layer id="365" name="const_fold_opt__515" type="Const" version="opset1">
			<data element_type="i64" shape="3" offset="11757160" size="24"/>
			<rt_info>
				<attribute name="fused_names" version="0" value="const_fold_opt__515"/>
			</rt_info>
			<output>
				<port id="0" precision="I64" names="const_fold_opt__515">
					<dim>3</dim>
				</port>
			</output>
		</layer>
		<layer id="366" name="model_1/model/reshaped_regressor_person_8/Reshape" type="Reshape" version="opset1">
			<data special_zero="true"/>
			<rt_info>
				<attribute name="fused_names" version="0" value="model_1/model/reshaped_regressor_person_8/Reshape"/>
			</rt_info>
			<input>
				<port id="0" precision="FP32">
					<dim>1</dim>
					<dim>28</dim>
					<dim>28</dim>
					<dim>24</dim>
				</port>
				<port id="1" precision="I64">
					<dim>3</dim>
				</port>
			</input>
			<output>
				<port id="2" precision="FP32" names="model_1/model/reshaped_regressor_person_8/Reshape:0">
					<dim>1</dim>
					<dim>1568</dim>
					<dim>12</dim>
				</port>
			</output>
		</layer>
		<layer id="367" name="Reshape_4662" type="Const" version="opset1">
			<data element_type="f32" shape="48, 1, 1, 3, 3" offset="11757184" size="1728"/>
			<output>
				<port id="0" precision="FP32">
					<dim>48</dim>
					<dim>1</dim>
					<dim>1</dim>
					<dim>3</dim>
					<dim>3</dim>
				</port>
			</output>
		</layer>
		<layer id="368" name="Conv__454/WithoutBiases" type="GroupConvolution" version="opset1">
			<data strides="2, 2" pads_begin="0, 0" pads_end="0, 0" dilations="1, 1" auto_pad="explicit"/>
			<rt_info>
				<attribute name="fused_names" version="0" value="Conv__454/WithoutBiases, Reshape_4662"/>
			</rt_info>
			<input>
				<port id="0" precision="FP32">
					<dim>1</dim>
					<dim>48</dim>
					<dim>30</dim>
					<dim>30</dim>
				</port>
				<port id="1" precision="FP32">
					<dim>48</dim>
					<dim>1</dim>
					<dim>1</dim>
					<dim>3</dim>
					<dim>3</dim>
				</port>
			</input>
			<output>
				<port id="2" precision="FP32">
					<dim>1</dim>
					<dim>48</dim>
					<dim>14</dim>
					<dim>14</dim>
				</port>
			</output>
		</layer>
		<layer id="369" name="Reshape_4748" type="Const" version="opset1">
			<data element_type="f32" shape="1, 48, 1, 1" offset="11758912" size="192"/>
			<output>
				<port id="0" precision="FP32">
					<dim>1</dim>
					<dim>48</dim>
					<dim>1</dim>
					<dim>1</dim>
				</port>
			</output>
		</layer>
		<layer id="370" name="Conv__454" type="Add" version="opset1">
			<data auto_broadcast="numpy"/>
			<rt_info>
				<attribute name="fused_names" version="0" value="Concat_4747, Conv__454, Reshape_4748"/>
			</rt_info>
			<input>
				<port id="0" precision="FP32">
					<dim>1</dim>
					<dim>48</dim>
					<dim>14</dim>
					<dim>14</dim>
				</port>
				<port id="1" precision="FP32">
					<dim>1</dim>
					<dim>48</dim>
					<dim>1</dim>
					<dim>1</dim>
				</port>
			</input>
			<output>
				<port id="2" precision="FP32" names="Conv__454:0">
					<dim>1</dim>
					<dim>48</dim>
					<dim>14</dim>
					<dim>14</dim>
				</port>
			</output>
		</layer>
		<layer id="371" name="Conv2D_42/filter:0" type="Const" version="opset1">
			<data element_type="f32" shape="24, 48, 1, 1" offset="11759104" size="4608"/>
			<rt_info>
				<attribute name="fused_names" version="0" value="Conv2D_42/filter:0"/>
			</rt_info>
			<output>
				<port id="0" precision="FP32" names="Conv2D_42/filter:0">
					<dim>24</dim>
					<dim>48</dim>
					<dim>1</dim>
					<dim>1</dim>
				</port>
			</output>
		</layer>
		<layer id="372" name="Conv__455/WithoutBiases" type="Convolution" version="opset1">
			<data strides="1, 1" dilations="1, 1" pads_begin="0, 0" pads_end="0, 0" auto_pad="explicit"/>
			<rt_info>
				<attribute name="fused_names" version="0" value="Conv__455/WithoutBiases"/>
			</rt_info>
			<input>
				<port id="0" precision="FP32">
					<dim>1</dim>
					<dim>48</dim>
					<dim>14</dim>
					<dim>14</dim>
				</port>
				<port id="1" precision="FP32">
					<dim>24</dim>
					<dim>48</dim>
					<dim>1</dim>
					<dim>1</dim>
				</port>
			</input>
			<output>
				<port id="2" precision="FP32">
					<dim>1</dim>
					<dim>24</dim>
					<dim>14</dim>
					<dim>14</dim>
				</port>
			</output>
		</layer>
		<layer id="373" name="Reshape_4796" type="Const" version="opset1">
			<data element_type="f32" shape="1, 24, 1, 1" offset="11763712" size="96"/>
			<output>
				<port id="0" precision="FP32">
					<dim>1</dim>
					<dim>24</dim>
					<dim>1</dim>
					<dim>1</dim>
				</port>
			</output>
		</layer>
		<layer id="374" name="Conv__455" type="Add" version="opset1">
			<data auto_broadcast="numpy"/>
			<rt_info>
				<attribute name="fused_names" version="0" value="Concat_4795, Conv__455, Reshape_4796"/>
			</rt_info>
			<input>
				<port id="0" precision="FP32">
					<dim>1</dim>
					<dim>24</dim>
					<dim>14</dim>
					<dim>14</dim>
				</port>
				<port id="1" precision="FP32">
					<dim>1</dim>
					<dim>24</dim>
					<dim>1</dim>
					<dim>1</dim>
				</port>
			</input>
			<output>
				<port id="2" precision="FP32" names="Conv__455:0">
					<dim>1</dim>
					<dim>24</dim>
					<dim>14</dim>
					<dim>14</dim>
				</port>
			</output>
		</layer>
		<layer id="375" name="Constant_4824" type="Const" version="opset1">
			<data element_type="i64" shape="4" offset="11732976" size="32"/>
			<rt_info>
				<attribute name="fused_names" version="0" value="Constant_4824"/>
			</rt_info>
			<output>
				<port id="0" precision="I64">
					<dim>4</dim>
				</port>
			</output>
		</layer>
		<layer id="376" name="Conv2D_42__329" type="Transpose" version="opset1">
			<rt_info>
				<attribute name="fused_names" version="0" value="Conv2D_42__329"/>
			</rt_info>
			<input>
				<port id="0" precision="FP32">
					<dim>1</dim>
					<dim>24</dim>
					<dim>14</dim>
					<dim>14</dim>
				</port>
				<port id="1" precision="I64">
					<dim>4</dim>
				</port>
			</input>
			<output>
				<port id="2" precision="FP32" names="Conv2D_42__329:0">
					<dim>1</dim>
					<dim>14</dim>
					<dim>14</dim>
					<dim>24</dim>
				</port>
			</output>
		</layer>
		<layer id="377" name="model_1/model/reshaped_regressor_person_16/Reshape" type="Reshape" version="opset1">
			<data special_zero="true"/>
			<rt_info>
				<attribute name="fused_names" version="0" value="model_1/model/reshaped_regressor_person_16/Reshape"/>
			</rt_info>
			<input>
				<port id="0" precision="FP32">
					<dim>1</dim>
					<dim>14</dim>
					<dim>14</dim>
					<dim>24</dim>
				</port>
				<port id="1" precision="I64">
					<dim>3</dim>
				</port>
			</input>
			<output>
				<port id="2" precision="FP32" names="model_1/model/reshaped_regressor_person_16/Reshape:0">
					<dim>1</dim>
					<dim>392</dim>
					<dim>12</dim>
				</port>
			</output>
		</layer>
		<layer id="378" name="Reshape_3907" type="Const" version="opset1">
			<data element_type="f32" shape="288, 1, 1, 3, 3" offset="11763808" size="10368"/>
			<output>
				<port id="0" precision="FP32">
					<dim>288</dim>
					<dim>1</dim>
					<dim>1</dim>
					<dim>3</dim>
					<dim>3</dim>
				</port>
			</output>
		</layer>
		<layer id="379" name="depthwise_27" type="GroupConvolution" version="opset1">
			<data strides="2, 2" pads_begin="0, 0" pads_end="0, 0" dilations="1, 1" auto_pad="explicit"/>
			<rt_info>
				<attribute name="fused_names" version="0" value="Reshape_3907, depthwise_27"/>
			</rt_info>
			<input>
				<port id="0" precision="FP32">
					<dim>1</dim>
					<dim>288</dim>
					<dim>16</dim>
					<dim>16</dim>
				</port>
				<port id="1" precision="FP32">
					<dim>288</dim>
					<dim>1</dim>
					<dim>1</dim>
					<dim>3</dim>
					<dim>3</dim>
				</port>
			</input>
			<output>
				<port id="2" precision="FP32" names="depthwise_27:0">
					<dim>1</dim>
					<dim>288</dim>
					<dim>7</dim>
					<dim>7</dim>
				</port>
			</output>
		</layer>
		<layer id="380" name="Conv2D_44/filter:0" type="Const" version="opset1">
			<data element_type="f32" shape="72, 288, 1, 1" offset="11774176" size="82944"/>
			<rt_info>
				<attribute name="fused_names" version="0" value="Conv2D_44/filter:0"/>
			</rt_info>
			<output>
				<port id="0" precision="FP32" names="Conv2D_44/filter:0">
					<dim>72</dim>
					<dim>288</dim>
					<dim>1</dim>
					<dim>1</dim>
				</port>
			</output>
		</layer>
		<layer id="381" name="Conv2D_44" type="Convolution" version="opset1">
			<data strides="1, 1" dilations="1, 1" pads_begin="0, 0" pads_end="0, 0" auto_pad="explicit"/>
			<rt_info>
				<attribute name="fused_names" version="0" value="Conv2D_44"/>
			</rt_info>
			<input>
				<port id="0" precision="FP32">
					<dim>1</dim>
					<dim>288</dim>
					<dim>7</dim>
					<dim>7</dim>
				</port>
				<port id="1" precision="FP32">
					<dim>72</dim>
					<dim>288</dim>
					<dim>1</dim>
					<dim>1</dim>
				</port>
			</input>
			<output>
				<port id="2" precision="FP32" names="Conv2D_44:0">
					<dim>1</dim>
					<dim>72</dim>
					<dim>7</dim>
					<dim>7</dim>
				</port>
			</output>
		</layer>
		<layer id="382" name="Constant_3976" type="Const" version="opset1">
			<data element_type="i64" shape="4" offset="11732976" size="32"/>
			<rt_info>
				<attribute name="fused_names" version="0" value="Constant_3976"/>
			</rt_info>
			<output>
				<port id="0" precision="I64">
					<dim>4</dim>
				</port>
			</output>
		</layer>
		<layer id="383" name="Conv2D_44__348" type="Transpose" version="opset1">
			<rt_info>
				<attribute name="fused_names" version="0" value="Conv2D_44__348"/>
			</rt_info>
			<input>
				<port id="0" precision="FP32">
					<dim>1</dim>
					<dim>72</dim>
					<dim>7</dim>
					<dim>7</dim>
				</port>
				<port id="1" precision="I64">
					<dim>4</dim>
				</port>
			</input>
			<output>
				<port id="2" precision="FP32" names="Conv2D_44__348:0">
					<dim>1</dim>
					<dim>7</dim>
					<dim>7</dim>
					<dim>72</dim>
				</port>
			</output>
		</layer>
		<layer id="384" name="model_1/model/reshaped_regressor_person_32/Reshape" type="Reshape" version="opset1">
			<data special_zero="true"/>
			<rt_info>
				<attribute name="fused_names" version="0" value="model_1/model/reshaped_regressor_person_32/Reshape"/>
			</rt_info>
			<input>
				<port id="0" precision="FP32">
					<dim>1</dim>
					<dim>7</dim>
					<dim>7</dim>
					<dim>72</dim>
				</port>
				<port id="1" precision="I64">
					<dim>3</dim>
				</port>
			</input>
			<output>
				<port id="2" precision="FP32" names="model_1/model/reshaped_regressor_person_32/Reshape:0">
					<dim>1</dim>
					<dim>294</dim>
					<dim>12</dim>
				</port>
			</output>
		</layer>
		<layer id="385" name="Identity" type="Concat" version="opset1">
			<data axis="1"/>
			<rt_info>
				<attribute name="fused_names" version="0" value="Identity"/>
			</rt_info>
			<input>
				<port id="0" precision="FP32">
					<dim>1</dim>
					<dim>1568</dim>
					<dim>12</dim>
				</port>
				<port id="1" precision="FP32">
					<dim>1</dim>
					<dim>392</dim>
					<dim>12</dim>
				</port>
				<port id="2" precision="FP32">
					<dim>1</dim>
					<dim>294</dim>
					<dim>12</dim>
				</port>
			</input>
			<output>
				<port id="3" precision="FP32" names="Identity">
					<dim>1</dim>
					<dim>2254</dim>
					<dim>12</dim>
				</port>
			</output>
		</layer>
		<layer id="386" name="Identity/sink_port_0" type="Result" version="opset1">
			<rt_info>
				<attribute name="fused_names" version="0" value="Identity/sink_port_0"/>
			</rt_info>
			<input>
				<port id="0" precision="FP32">
					<dim>1</dim>
					<dim>2254</dim>
					<dim>12</dim>
				</port>
			</input>
		</layer>
		<layer id="354" name="Identity_1/sink_port_0" type="Result" version="opset1">
			<rt_info>
				<attribute name="fused_names" version="0" value="Identity_1/sink_port_0"/>
			</rt_info>
			<input>
				<port id="0" precision="FP32">
					<dim>1</dim>
					<dim>2254</dim>
					<dim>1</dim>
				</port>
			</input>
		</layer>
	</layers>
	<edges>
		<edge from-layer="0" from-port="0" to-layer="2" to-port="0"/>
		<edge from-layer="1" from-port="0" to-layer="2" to-port="1"/>
		<edge from-layer="2" from-port="2" to-layer="4" to-port="0"/>
		<edge from-layer="3" from-port="0" to-layer="4" to-port="1"/>
		<edge from-layer="4" from-port="2" to-layer="5" to-port="0"/>
		<edge from-layer="5" from-port="1" to-layer="7" to-port="0"/>
		<edge from-layer="6" from-port="0" to-layer="7" to-port="1"/>
		<edge from-layer="7" from-port="2" to-layer="9" to-port="0"/>
		<edge from-layer="8" from-port="0" to-layer="9" to-port="1"/>
		<edge from-layer="9" from-port="2" to-layer="10" to-port="0"/>
		<edge from-layer="10" from-port="1" to-layer="12" to-port="0"/>
		<edge from-layer="11" from-port="0" to-layer="12" to-port="1"/>
		<edge from-layer="12" from-port="2" to-layer="14" to-port="0"/>
		<edge from-layer="13" from-port="0" to-layer="14" to-port="1"/>
		<edge from-layer="14" from-port="2" to-layer="16" to-port="0"/>
		<edge from-layer="15" from-port="0" to-layer="16" to-port="1"/>
		<edge from-layer="16" from-port="2" to-layer="18" to-port="0"/>
		<edge from-layer="17" from-port="0" to-layer="18" to-port="1"/>
		<edge from-layer="18" from-port="2" to-layer="19" to-port="0"/>
		<edge from-layer="19" from-port="1" to-layer="21" to-port="0"/>
		<edge from-layer="20" from-port="0" to-layer="21" to-port="1"/>
		<edge from-layer="21" from-port="2" to-layer="23" to-port="0"/>
		<edge from-layer="22" from-port="0" to-layer="23" to-port="1"/>
		<edge from-layer="23" from-port="2" to-layer="24" to-port="0"/>
		<edge from-layer="24" from-port="1" to-layer="26" to-port="0"/>
		<edge from-layer="25" from-port="0" to-layer="26" to-port="1"/>
		<edge from-layer="26" from-port="2" to-layer="28" to-port="0"/>
		<edge from-layer="27" from-port="0" to-layer="28" to-port="1"/>
		<edge from-layer="28" from-port="2" to-layer="30" to-port="0"/>
		<edge from-layer="28" from-port="2" to-layer="43" to-port="1"/>
		<edge from-layer="29" from-port="0" to-layer="30" to-port="1"/>
		<edge from-layer="30" from-port="2" to-layer="32" to-port="0"/>
		<edge from-layer="31" from-port="0" to-layer="32" to-port="1"/>
		<edge from-layer="32" from-port="2" to-layer="33" to-port="0"/>
		<edge from-layer="33" from-port="1" to-layer="35" to-port="0"/>
		<edge from-layer="34" from-port="0" to-layer="35" to-port="1"/>
		<edge from-layer="35" from-port="2" to-layer="37" to-port="0"/>
		<edge from-layer="36" from-port="0" to-layer="37" to-port="1"/>
		<edge from-layer="37" from-port="2" to-layer="38" to-port="0"/>
		<edge from-layer="38" from-port="1" to-layer="40" to-port="0"/>
		<edge from-layer="39" from-port="0" to-layer="40" to-port="1"/>
		<edge from-layer="40" from-port="2" to-layer="42" to-port="0"/>
		<edge from-layer="41" from-port="0" to-layer="42" to-port="1"/>
		<edge from-layer="42" from-port="2" to-layer="43" to-port="0"/>
		<edge from-layer="43" from-port="2" to-layer="45" to-port="0"/>
		<edge from-layer="44" from-port="0" to-layer="45" to-port="1"/>
		<edge from-layer="45" from-port="2" to-layer="47" to-port="0"/>
		<edge from-layer="46" from-port="0" to-layer="47" to-port="1"/>
		<edge from-layer="47" from-port="2" to-layer="48" to-port="0"/>
		<edge from-layer="48" from-port="1" to-layer="50" to-port="0"/>
		<edge from-layer="49" from-port="0" to-layer="50" to-port="1"/>
		<edge from-layer="50" from-port="2" to-layer="52" to-port="0"/>
		<edge from-layer="51" from-port="0" to-layer="52" to-port="1"/>
		<edge from-layer="52" from-port="2" to-layer="53" to-port="0"/>
		<edge from-layer="53" from-port="1" to-layer="55" to-port="0"/>
		<edge from-layer="54" from-port="0" to-layer="55" to-port="1"/>
		<edge from-layer="55" from-port="2" to-layer="57" to-port="0"/>
		<edge from-layer="56" from-port="0" to-layer="57" to-port="1"/>
		<edge from-layer="57" from-port="2" to-layer="59" to-port="0"/>
		<edge from-layer="57" from-port="2" to-layer="72" to-port="1"/>
		<edge from-layer="58" from-port="0" to-layer="59" to-port="1"/>
		<edge from-layer="59" from-port="2" to-layer="61" to-port="0"/>
		<edge from-layer="60" from-port="0" to-layer="61" to-port="1"/>
		<edge from-layer="61" from-port="2" to-layer="62" to-port="0"/>
		<edge from-layer="62" from-port="1" to-layer="64" to-port="0"/>
		<edge from-layer="63" from-port="0" to-layer="64" to-port="1"/>
		<edge from-layer="64" from-port="2" to-layer="66" to-port="0"/>
		<edge from-layer="65" from-port="0" to-layer="66" to-port="1"/>
		<edge from-layer="66" from-port="2" to-layer="67" to-port="0"/>
		<edge from-layer="67" from-port="1" to-layer="69" to-port="0"/>
		<edge from-layer="68" from-port="0" to-layer="69" to-port="1"/>
		<edge from-layer="69" from-port="2" to-layer="71" to-port="0"/>
		<edge from-layer="70" from-port="0" to-layer="71" to-port="1"/>
		<edge from-layer="71" from-port="2" to-layer="72" to-port="0"/>
		<edge from-layer="72" from-port="2" to-layer="74" to-port="0"/>
		<edge from-layer="72" from-port="2" to-layer="81" to-port="0"/>
		<edge from-layer="73" from-port="0" to-layer="74" to-port="1"/>
		<edge from-layer="74" from-port="2" to-layer="76" to-port="0"/>
		<edge from-layer="75" from-port="0" to-layer="76" to-port="1"/>
		<edge from-layer="76" from-port="2" to-layer="78" to-port="0"/>
		<edge from-layer="77" from-port="0" to-layer="78" to-port="1"/>
		<edge from-layer="78" from-port="2" to-layer="79" to-port="0"/>
		<edge from-layer="79" from-port="1" to-layer="287" to-port="0"/>
		<edge from-layer="80" from-port="0" to-layer="81" to-port="1"/>
		<edge from-layer="81" from-port="2" to-layer="83" to-port="0"/>
		<edge from-layer="82" from-port="0" to-layer="83" to-port="1"/>
		<edge from-layer="83" from-port="2" to-layer="84" to-port="0"/>
		<edge from-layer="84" from-port="1" to-layer="86" to-port="0"/>
		<edge from-layer="85" from-port="0" to-layer="86" to-port="1"/>
		<edge from-layer="86" from-port="2" to-layer="88" to-port="0"/>
		<edge from-layer="87" from-port="0" to-layer="88" to-port="1"/>
		<edge from-layer="88" from-port="2" to-layer="89" to-port="0"/>
		<edge from-layer="89" from-port="1" to-layer="91" to-port="0"/>
		<edge from-layer="90" from-port="0" to-layer="91" to-port="1"/>
		<edge from-layer="91" from-port="2" to-layer="93" to-port="0"/>
		<edge from-layer="92" from-port="0" to-layer="93" to-port="1"/>
		<edge from-layer="93" from-port="2" to-layer="95" to-port="0"/>
		<edge from-layer="93" from-port="2" to-layer="108" to-port="1"/>
		<edge from-layer="94" from-port="0" to-layer="95" to-port="1"/>
		<edge from-layer="95" from-port="2" to-layer="97" to-port="0"/>
		<edge from-layer="96" from-port="0" to-layer="97" to-port="1"/>
		<edge from-layer="97" from-port="2" to-layer="98" to-port="0"/>
		<edge from-layer="98" from-port="1" to-layer="100" to-port="0"/>
		<edge from-layer="99" from-port="0" to-layer="100" to-port="1"/>
		<edge from-layer="100" from-port="2" to-layer="102" to-port="0"/>
		<edge from-layer="101" from-port="0" to-layer="102" to-port="1"/>
		<edge from-layer="102" from-port="2" to-layer="103" to-port="0"/>
		<edge from-layer="103" from-port="1" to-layer="105" to-port="0"/>
		<edge from-layer="104" from-port="0" to-layer="105" to-port="1"/>
		<edge from-layer="105" from-port="2" to-layer="107" to-port="0"/>
		<edge from-layer="106" from-port="0" to-layer="107" to-port="1"/>
		<edge from-layer="107" from-port="2" to-layer="108" to-port="0"/>
		<edge from-layer="108" from-port="2" to-layer="110" to-port="0"/>
		<edge from-layer="108" from-port="2" to-layer="123" to-port="1"/>
		<edge from-layer="109" from-port="0" to-layer="110" to-port="1"/>
		<edge from-layer="110" from-port="2" to-layer="112" to-port="0"/>
		<edge from-layer="111" from-port="0" to-layer="112" to-port="1"/>
		<edge from-layer="112" from-port="2" to-layer="113" to-port="0"/>
		<edge from-layer="113" from-port="1" to-layer="115" to-port="0"/>
		<edge from-layer="114" from-port="0" to-layer="115" to-port="1"/>
		<edge from-layer="115" from-port="2" to-layer="117" to-port="0"/>
		<edge from-layer="116" from-port="0" to-layer="117" to-port="1"/>
		<edge from-layer="117" from-port="2" to-layer="118" to-port="0"/>
		<edge from-layer="118" from-port="1" to-layer="120" to-port="0"/>
		<edge from-layer="119" from-port="0" to-layer="120" to-port="1"/>
		<edge from-layer="120" from-port="2" to-layer="122" to-port="0"/>
		<edge from-layer="121" from-port="0" to-layer="122" to-port="1"/>
		<edge from-layer="122" from-port="2" to-layer="123" to-port="0"/>
		<edge from-layer="123" from-port="2" to-layer="125" to-port="0"/>
		<edge from-layer="124" from-port="0" to-layer="125" to-port="1"/>
		<edge from-layer="125" from-port="2" to-layer="127" to-port="0"/>
		<edge from-layer="126" from-port="0" to-layer="127" to-port="1"/>
		<edge from-layer="127" from-port="2" to-layer="128" to-port="0"/>
		<edge from-layer="128" from-port="1" to-layer="130" to-port="0"/>
		<edge from-layer="129" from-port="0" to-layer="130" to-port="1"/>
		<edge from-layer="130" from-port="2" to-layer="132" to-port="0"/>
		<edge from-layer="131" from-port="0" to-layer="132" to-port="1"/>
		<edge from-layer="132" from-port="2" to-layer="133" to-port="0"/>
		<edge from-layer="133" from-port="1" to-layer="135" to-port="0"/>
		<edge from-layer="134" from-port="0" to-layer="135" to-port="1"/>
		<edge from-layer="135" from-port="2" to-layer="137" to-port="0"/>
		<edge from-layer="136" from-port="0" to-layer="137" to-port="1"/>
		<edge from-layer="137" from-port="2" to-layer="139" to-port="0"/>
		<edge from-layer="137" from-port="2" to-layer="152" to-port="1"/>
		<edge from-layer="138" from-port="0" to-layer="139" to-port="1"/>
		<edge from-layer="139" from-port="2" to-layer="141" to-port="0"/>
		<edge from-layer="140" from-port="0" to-layer="141" to-port="1"/>
		<edge from-layer="141" from-port="2" to-layer="142" to-port="0"/>
		<edge from-layer="142" from-port="1" to-layer="144" to-port="0"/>
		<edge from-layer="143" from-port="0" to-layer="144" to-port="1"/>
		<edge from-layer="144" from-port="2" to-layer="146" to-port="0"/>
		<edge from-layer="145" from-port="0" to-layer="146" to-port="1"/>
		<edge from-layer="146" from-port="2" to-layer="147" to-port="0"/>
		<edge from-layer="147" from-port="1" to-layer="149" to-port="0"/>
		<edge from-layer="148" from-port="0" to-layer="149" to-port="1"/>
		<edge from-layer="149" from-port="2" to-layer="151" to-port="0"/>
		<edge from-layer="150" from-port="0" to-layer="151" to-port="1"/>
		<edge from-layer="151" from-port="2" to-layer="152" to-port="0"/>
		<edge from-layer="152" from-port="2" to-layer="154" to-port="0"/>
		<edge from-layer="152" from-port="2" to-layer="167" to-port="1"/>
		<edge from-layer="153" from-port="0" to-layer="154" to-port="1"/>
		<edge from-layer="154" from-port="2" to-layer="156" to-port="0"/>
		<edge from-layer="155" from-port="0" to-layer="156" to-port="1"/>
		<edge from-layer="156" from-port="2" to-layer="157" to-port="0"/>
		<edge from-layer="157" from-port="1" to-layer="159" to-port="0"/>
		<edge from-layer="158" from-port="0" to-layer="159" to-port="1"/>
		<edge from-layer="159" from-port="2" to-layer="161" to-port="0"/>
		<edge from-layer="160" from-port="0" to-layer="161" to-port="1"/>
		<edge from-layer="161" from-port="2" to-layer="162" to-port="0"/>
		<edge from-layer="162" from-port="1" to-layer="164" to-port="0"/>
		<edge from-layer="163" from-port="0" to-layer="164" to-port="1"/>
		<edge from-layer="164" from-port="2" to-layer="166" to-port="0"/>
		<edge from-layer="165" from-port="0" to-layer="166" to-port="1"/>
		<edge from-layer="166" from-port="2" to-layer="167" to-port="0"/>
		<edge from-layer="167" from-port="2" to-layer="169" to-port="0"/>
		<edge from-layer="167" from-port="2" to-layer="176" to-port="0"/>
		<edge from-layer="168" from-port="0" to-layer="169" to-port="1"/>
		<edge from-layer="169" from-port="2" to-layer="171" to-port="0"/>
		<edge from-layer="170" from-port="0" to-layer="171" to-port="1"/>
		<edge from-layer="171" from-port="2" to-layer="173" to-port="0"/>
		<edge from-layer="172" from-port="0" to-layer="173" to-port="1"/>
		<edge from-layer="173" from-port="2" to-layer="174" to-port="0"/>
		<edge from-layer="174" from-port="1" to-layer="257" to-port="0"/>
		<edge from-layer="175" from-port="0" to-layer="176" to-port="1"/>
		<edge from-layer="176" from-port="2" to-layer="178" to-port="0"/>
		<edge from-layer="177" from-port="0" to-layer="178" to-port="1"/>
		<edge from-layer="178" from-port="2" to-layer="179" to-port="0"/>
		<edge from-layer="179" from-port="1" to-layer="181" to-port="0"/>
		<edge from-layer="180" from-port="0" to-layer="181" to-port="1"/>
		<edge from-layer="181" from-port="2" to-layer="183" to-port="0"/>
		<edge from-layer="182" from-port="0" to-layer="183" to-port="1"/>
		<edge from-layer="183" from-port="2" to-layer="184" to-port="0"/>
		<edge from-layer="184" from-port="1" to-layer="186" to-port="0"/>
		<edge from-layer="185" from-port="0" to-layer="186" to-port="1"/>
		<edge from-layer="186" from-port="2" to-layer="188" to-port="0"/>
		<edge from-layer="187" from-port="0" to-layer="188" to-port="1"/>
		<edge from-layer="188" from-port="2" to-layer="203" to-port="1"/>
		<edge from-layer="188" from-port="2" to-layer="190" to-port="0"/>
		<edge from-layer="189" from-port="0" to-layer="190" to-port="1"/>
		<edge from-layer="190" from-port="2" to-layer="192" to-port="0"/>
		<edge from-layer="191" from-port="0" to-layer="192" to-port="1"/>
		<edge from-layer="192" from-port="2" to-layer="193" to-port="0"/>
		<edge from-layer="193" from-port="1" to-layer="195" to-port="0"/>
		<edge from-layer="194" from-port="0" to-layer="195" to-port="1"/>
		<edge from-layer="195" from-port="2" to-layer="197" to-port="0"/>
		<edge from-layer="196" from-port="0" to-layer="197" to-port="1"/>
		<edge from-layer="197" from-port="2" to-layer="198" to-port="0"/>
		<edge from-layer="198" from-port="1" to-layer="200" to-port="0"/>
		<edge from-layer="199" from-port="0" to-layer="200" to-port="1"/>
		<edge from-layer="200" from-port="2" to-layer="202" to-port="0"/>
		<edge from-layer="201" from-port="0" to-layer="202" to-port="1"/>
		<edge from-layer="202" from-port="2" to-layer="203" to-port="0"/>
		<edge from-layer="203" from-port="2" to-layer="205" to-port="0"/>
		<edge from-layer="203" from-port="2" to-layer="218" to-port="1"/>
		<edge from-layer="204" from-port="0" to-layer="205" to-port="1"/>
		<edge from-layer="205" from-port="2" to-layer="207" to-port="0"/>
		<edge from-layer="206" from-port="0" to-layer="207" to-port="1"/>
		<edge from-layer="207" from-port="2" to-layer="208" to-port="0"/>
		<edge from-layer="208" from-port="1" to-layer="210" to-port="0"/>
		<edge from-layer="209" from-port="0" to-layer="210" to-port="1"/>
		<edge from-layer="210" from-port="2" to-layer="212" to-port="0"/>
		<edge from-layer="211" from-port="0" to-layer="212" to-port="1"/>
		<edge from-layer="212" from-port="2" to-layer="213" to-port="0"/>
		<edge from-layer="213" from-port="1" to-layer="215" to-port="0"/>
		<edge from-layer="214" from-port="0" to-layer="215" to-port="1"/>
		<edge from-layer="215" from-port="2" to-layer="217" to-port="0"/>
		<edge from-layer="216" from-port="0" to-layer="217" to-port="1"/>
		<edge from-layer="217" from-port="2" to-layer="218" to-port="0"/>
		<edge from-layer="218" from-port="2" to-layer="220" to-port="0"/>
		<edge from-layer="218" from-port="2" to-layer="233" to-port="1"/>
		<edge from-layer="219" from-port="0" to-layer="220" to-port="1"/>
		<edge from-layer="220" from-port="2" to-layer="222" to-port="0"/>
		<edge from-layer="221" from-port="0" to-layer="222" to-port="1"/>
		<edge from-layer="222" from-port="2" to-layer="223" to-port="0"/>
		<edge from-layer="223" from-port="1" to-layer="225" to-port="0"/>
		<edge from-layer="224" from-port="0" to-layer="225" to-port="1"/>
		<edge from-layer="225" from-port="2" to-layer="227" to-port="0"/>
		<edge from-layer="226" from-port="0" to-layer="227" to-port="1"/>
		<edge from-layer="227" from-port="2" to-layer="228" to-port="0"/>
		<edge from-layer="228" from-port="1" to-layer="230" to-port="0"/>
		<edge from-layer="229" from-port="0" to-layer="230" to-port="1"/>
		<edge from-layer="230" from-port="2" to-layer="232" to-port="0"/>
		<edge from-layer="231" from-port="0" to-layer="232" to-port="1"/>
		<edge from-layer="232" from-port="2" to-layer="233" to-port="0"/>
		<edge from-layer="233" from-port="2" to-layer="235" to-port="0"/>
		<edge from-layer="234" from-port="0" to-layer="235" to-port="1"/>
		<edge from-layer="235" from-port="2" to-layer="237" to-port="0"/>
		<edge from-layer="236" from-port="0" to-layer="237" to-port="1"/>
		<edge from-layer="237" from-port="2" to-layer="238" to-port="0"/>
		<edge from-layer="238" from-port="1" to-layer="240" to-port="0"/>
		<edge from-layer="239" from-port="0" to-layer="240" to-port="1"/>
		<edge from-layer="240" from-port="2" to-layer="242" to-port="0"/>
		<edge from-layer="241" from-port="0" to-layer="242" to-port="1"/>
		<edge from-layer="242" from-port="2" to-layer="243" to-port="0"/>
		<edge from-layer="243" from-port="1" to-layer="246" to-port="0"/>
		<edge from-layer="243" from-port="1" to-layer="337" to-port="0"/>
		<edge from-layer="243" from-port="1" to-layer="251" to-port="0"/>
		<edge from-layer="244" from-port="0" to-layer="251" to-port="1"/>
		<edge from-layer="245" from-port="0" to-layer="248" to-port="0"/>
		<edge from-layer="246" from-port="1" to-layer="247" to-port="0"/>
		<edge from-layer="247" from-port="1" to-layer="248" to-port="1"/>
		<edge from-layer="248" from-port="2" to-layer="250" to-port="0"/>
		<edge from-layer="249" from-port="0" to-layer="250" to-port="1"/>
		<edge from-layer="250" from-port="2" to-layer="251" to-port="2"/>
		<edge from-layer="251" from-port="3" to-layer="253" to-port="0"/>
		<edge from-layer="252" from-port="0" to-layer="253" to-port="1"/>
		<edge from-layer="253" from-port="2" to-layer="255" to-port="0"/>
		<edge from-layer="254" from-port="0" to-layer="255" to-port="1"/>
		<edge from-layer="255" from-port="2" to-layer="256" to-port="0"/>
		<edge from-layer="256" from-port="1" to-layer="257" to-port="1"/>
		<edge from-layer="257" from-port="2" to-layer="259" to-port="0"/>
		<edge from-layer="257" from-port="2" to-layer="264" to-port="0"/>
		<edge from-layer="258" from-port="0" to-layer="259" to-port="1"/>
		<edge from-layer="259" from-port="2" to-layer="261" to-port="0"/>
		<edge from-layer="260" from-port="0" to-layer="261" to-port="1"/>
		<edge from-layer="261" from-port="2" to-layer="263" to-port="0"/>
		<edge from-layer="262" from-port="0" to-layer="263" to-port="1"/>
		<edge from-layer="263" from-port="2" to-layer="264" to-port="1"/>
		<edge from-layer="264" from-port="2" to-layer="265" to-port="0"/>
		<edge from-layer="265" from-port="1" to-layer="267" to-port="0"/>
		<edge from-layer="265" from-port="1" to-layer="272" to-port="0"/>
		<edge from-layer="266" from-port="0" to-layer="267" to-port="1"/>
		<edge from-layer="267" from-port="2" to-layer="269" to-port="0"/>
		<edge from-layer="268" from-port="0" to-layer="269" to-port="1"/>
		<edge from-layer="269" from-port="2" to-layer="271" to-port="0"/>
		<edge from-layer="270" from-port="0" to-layer="271" to-port="1"/>
		<edge from-layer="271" from-port="2" to-layer="272" to-port="1"/>
		<edge from-layer="272" from-port="2" to-layer="273" to-port="0"/>
		<edge from-layer="273" from-port="1" to-layer="321" to-port="0"/>
		<edge from-layer="273" from-port="1" to-layer="281" to-port="0"/>
		<edge from-layer="273" from-port="1" to-layer="276" to-port="0"/>
		<edge from-layer="274" from-port="0" to-layer="281" to-port="1"/>
		<edge from-layer="275" from-port="0" to-layer="278" to-port="0"/>
		<edge from-layer="276" from-port="1" to-layer="277" to-port="0"/>
		<edge from-layer="277" from-port="1" to-layer="278" to-port="1"/>
		<edge from-layer="278" from-port="2" to-layer="280" to-port="0"/>
		<edge from-layer="279" from-port="0" to-layer="280" to-port="1"/>
		<edge from-layer="280" from-port="2" to-layer="281" to-port="2"/>
		<edge from-layer="281" from-port="3" to-layer="283" to-port="0"/>
		<edge from-layer="282" from-port="0" to-layer="283" to-port="1"/>
		<edge from-layer="283" from-port="2" to-layer="285" to-port="0"/>
		<edge from-layer="284" from-port="0" to-layer="285" to-port="1"/>
		<edge from-layer="285" from-port="2" to-layer="286" to-port="0"/>
		<edge from-layer="286" from-port="1" to-layer="287" to-port="1"/>
		<edge from-layer="287" from-port="2" to-layer="289" to-port="0"/>
		<edge from-layer="287" from-port="2" to-layer="294" to-port="0"/>
		<edge from-layer="288" from-port="0" to-layer="289" to-port="1"/>
		<edge from-layer="289" from-port="2" to-layer="291" to-port="0"/>
		<edge from-layer="290" from-port="0" to-layer="291" to-port="1"/>
		<edge from-layer="291" from-port="2" to-layer="293" to-port="0"/>
		<edge from-layer="292" from-port="0" to-layer="293" to-port="1"/>
		<edge from-layer="293" from-port="2" to-layer="294" to-port="1"/>
		<edge from-layer="294" from-port="2" to-layer="295" to-port="0"/>
		<edge from-layer="295" from-port="1" to-layer="302" to-port="0"/>
		<edge from-layer="295" from-port="1" to-layer="297" to-port="0"/>
		<edge from-layer="296" from-port="0" to-layer="297" to-port="1"/>
		<edge from-layer="297" from-port="2" to-layer="299" to-port="0"/>
		<edge from-layer="298" from-port="0" to-layer="299" to-port="1"/>
		<edge from-layer="299" from-port="2" to-layer="301" to-port="0"/>
		<edge from-layer="300" from-port="0" to-layer="301" to-port="1"/>
		<edge from-layer="301" from-port="2" to-layer="302" to-port="1"/>
		<edge from-layer="302" from-port="2" to-layer="303" to-port="0"/>
		<edge from-layer="303" from-port="1" to-layer="304" to-port="0"/>
		<edge from-layer="304" from-port="1" to-layer="308" to-port="0"/>
		<edge from-layer="305" from-port="0" to-layer="308" to-port="1"/>
		<edge from-layer="306" from-port="0" to-layer="308" to-port="2"/>
		<edge from-layer="307" from-port="0" to-layer="308" to-port="3"/>
		<edge from-layer="308" from-port="4" to-layer="310" to-port="0"/>
		<edge from-layer="308" from-port="4" to-layer="356" to-port="0"/>
		<edge from-layer="309" from-port="0" to-layer="310" to-port="1"/>
		<edge from-layer="310" from-port="2" to-layer="312" to-port="0"/>
		<edge from-layer="311" from-port="0" to-layer="312" to-port="1"/>
		<edge from-layer="312" from-port="2" to-layer="314" to-port="0"/>
		<edge from-layer="313" from-port="0" to-layer="314" to-port="1"/>
		<edge from-layer="314" from-port="2" to-layer="316" to-port="0"/>
		<edge from-layer="315" from-port="0" to-layer="316" to-port="1"/>
		<edge from-layer="316" from-port="2" to-layer="318" to-port="0"/>
		<edge from-layer="317" from-port="0" to-layer="318" to-port="1"/>
		<edge from-layer="318" from-port="2" to-layer="320" to-port="0"/>
		<edge from-layer="319" from-port="0" to-layer="352" to-port="1"/>
		<edge from-layer="319" from-port="0" to-layer="336" to-port="1"/>
		<edge from-layer="319" from-port="0" to-layer="320" to-port="1"/>
		<edge from-layer="320" from-port="2" to-layer="353" to-port="0"/>
		<edge from-layer="321" from-port="1" to-layer="325" to-port="0"/>
		<edge from-layer="322" from-port="0" to-layer="325" to-port="1"/>
		<edge from-layer="323" from-port="0" to-layer="325" to-port="2"/>
		<edge from-layer="324" from-port="0" to-layer="325" to-port="3"/>
		<edge from-layer="325" from-port="4" to-layer="327" to-port="0"/>
		<edge from-layer="325" from-port="4" to-layer="368" to-port="0"/>
		<edge from-layer="326" from-port="0" to-layer="327" to-port="1"/>
		<edge from-layer="327" from-port="2" to-layer="329" to-port="0"/>
		<edge from-layer="328" from-port="0" to-layer="329" to-port="1"/>
		<edge from-layer="329" from-port="2" to-layer="331" to-port="0"/>
		<edge from-layer="330" from-port="0" to-layer="331" to-port="1"/>
		<edge from-layer="331" from-port="2" to-layer="333" to-port="0"/>
		<edge from-layer="332" from-port="0" to-layer="333" to-port="1"/>
		<edge from-layer="333" from-port="2" to-layer="335" to-port="0"/>
		<edge from-layer="334" from-port="0" to-layer="335" to-port="1"/>
		<edge from-layer="335" from-port="2" to-layer="336" to-port="0"/>
		<edge from-layer="336" from-port="2" to-layer="353" to-port="1"/>
		<edge from-layer="337" from-port="1" to-layer="341" to-port="0"/>
		<edge from-layer="338" from-port="0" to-layer="341" to-port="1"/>
		<edge from-layer="339" from-port="0" to-layer="341" to-port="2"/>
		<edge from-layer="340" from-port="0" to-layer="341" to-port="3"/>
		<edge from-layer="341" from-port="4" to-layer="379" to-port="0"/>
		<edge from-layer="341" from-port="4" to-layer="343" to-port="0"/>
		<edge from-layer="342" from-port="0" to-layer="343" to-port="1"/>
		<edge from-layer="343" from-port="2" to-layer="345" to-port="0"/>
		<edge from-layer="344" from-port="0" to-layer="345" to-port="1"/>
		<edge from-layer="345" from-port="2" to-layer="347" to-port="0"/>
		<edge from-layer="346" from-port="0" to-layer="347" to-port="1"/>
		<edge from-layer="347" from-port="2" to-layer="349" to-port="0"/>
		<edge from-layer="348" from-port="0" to-layer="349" to-port="1"/>
		<edge from-layer="349" from-port="2" to-layer="351" to-port="0"/>
		<edge from-layer="350" from-port="0" to-layer="351" to-port="1"/>
		<edge from-layer="351" from-port="2" to-layer="352" to-port="0"/>
		<edge from-layer="352" from-port="2" to-layer="353" to-port="2"/>
		<edge from-layer="353" from-port="3" to-layer="354" to-port="0"/>
		<edge from-layer="355" from-port="0" to-layer="356" to-port="1"/>
		<edge from-layer="356" from-port="2" to-layer="358" to-port="0"/>
		<edge from-layer="357" from-port="0" to-layer="358" to-port="1"/>
		<edge from-layer="358" from-port="2" to-layer="360" to-port="0"/>
		<edge from-layer="359" from-port="0" to-layer="360" to-port="1"/>
		<edge from-layer="360" from-port="2" to-layer="362" to-port="0"/>
		<edge from-layer="361" from-port="0" to-layer="362" to-port="1"/>
		<edge from-layer="362" from-port="2" to-layer="364" to-port="0"/>
		<edge from-layer="363" from-port="0" to-layer="364" to-port="1"/>
		<edge from-layer="364" from-port="2" to-layer="366" to-port="0"/>
		<edge from-layer="365" from-port="0" to-layer="366" to-port="1"/>
		<edge from-layer="365" from-port="0" to-layer="384" to-port="1"/>
		<edge from-layer="365" from-port="0" to-layer="377" to-port="1"/>
		<edge from-layer="366" from-port="2" to-layer="385" to-port="0"/>
		<edge from-layer="367" from-port="0" to-layer="368" to-port="1"/>
		<edge from-layer="368" from-port="2" to-layer="370" to-port="0"/>
		<edge from-layer="369" from-port="0" to-layer="370" to-port="1"/>
		<edge from-layer="370" from-port="2" to-layer="372" to-port="0"/>
		<edge from-layer="371" from-port="0" to-layer="372" to-port="1"/>
		<edge from-layer="372" from-port="2" to-layer="374" to-port="0"/>
		<edge from-layer="373" from-port="0" to-layer="374" to-port="1"/>
		<edge from-layer="374" from-port="2" to-layer="376" to-port="0"/>
		<edge from-layer="375" from-port="0" to-layer="376" to-port="1"/>
		<edge from-layer="376" from-port="2" to-layer="377" to-port="0"/>
		<edge from-layer="377" from-port="2" to-layer="385" to-port="1"/>
		<edge from-layer="378" from-port="0" to-layer="379" to-port="1"/>
		<edge from-layer="379" from-port="2" to-layer="381" to-port="0"/>
		<edge from-layer="380" from-port="0" to-layer="381" to-port="1"/>
		<edge from-layer="381" from-port="2" to-layer="383" to-port="0"/>
		<edge from-layer="382" from-port="0" to-layer="383" to-port="1"/>
		<edge from-layer="383" from-port="2" to-layer="384" to-port="0"/>
		<edge from-layer="384" from-port="2" to-layer="385" to-port="2"/>
		<edge from-layer="385" from-port="3" to-layer="386" to-port="0"/>
	</edges>
	<meta_data>
		<MO_version value="2022.2.0-7713-af16ea1d79a-releases/2022/2"/>
		<Runtime_version value="2022.2.0-7713-af16ea1d79a-releases/2022/2"/>
		<legacy_path value="False"/>
		<cli_parameters>
			<caffe_parser_path value="DIR"/>
			<compress_fp16 value="False"/>
			<data_type value="float"/>
			<disable_nhwc_to_nchw value="False"/>
			<disable_omitting_optional value="False"/>
			<disable_resnet_optimization value="False"/>
			<disable_weights_compression value="False"/>
			<enable_concat_optimization value="False"/>
			<enable_flattening_nested_params value="False"/>
			<enable_ssd_gluoncv value="False"/>
			<extensions value="DIR"/>
			<framework value="onnx"/>
			<freeze_placeholder_with_value value="{}"/>
			<input_model value="DIR/pose_detection.onnx"/>
			<input_model_is_text value="False"/>
			<k value="DIR/CustomLayersMapping.xml"/>
			<layout value="()"/>
			<layout_values value="{}"/>
			<legacy_mxnet_model value="False"/>
			<log_level value="ERROR"/>
			<mean_scale_values value="{}"/>
			<mean_values value="()"/>
			<model_name value="pose_detection"/>
			<output_dir value="DIR"/>
			<placeholder_data_types value="{}"/>
			<progress value="False"/>
			<remove_memory value="False"/>
			<remove_output_softmax value="False"/>
			<reverse_input_channels value="False"/>
			<save_params_from_nd value="False"/>
			<scale_values value="()"/>
			<silent value="False"/>
			<source_layout value="()"/>
			<static_shape value="False"/>
			<stream_output value="False"/>
			<target_layout value="()"/>
			<transform value=""/>
			<use_legacy_frontend value="False"/>
			<use_new_frontend value="False"/>
			<unset unset_cli_parameters="batch, counts, disable_fusing, finegrain_fusing, input, input_checkpoint, input_meta_graph, input_proto, input_shape, input_symbol, mean_file, mean_file_offsets, nd_prefix_name, output, placeholder_shapes, pretrained_model_name, saved_model_dir, saved_model_tags, scale, tensorboard_logdir, tensorflow_custom_layer_libraries, tensorflow_custom_operations_config_update, tensorflow_object_detection_api_pipeline_config, tensorflow_use_custom_operations_config, transformations_config"/>
		</cli_parameters>
	</meta_data>
</net>
